weights/adversarial.pth (torch, 249735 bytes, 10 tensors)

conv1.weight f4 [6, 1, 5, 5]
00000000: e462 993c 1b1a aa3e ba38 913e de4c 673d
00000010: 6e2d 88bd cfbd 553b 3004 e83e aa0c df3e
00000020: d9ef 29be 5c2f 1fbe 9339 593e 997c 963e
00000030: 557e bc3d 6d5e 2bbe 8b8b d5bd 8a89 a53d
00000040: 170a 4f3e 6fd2 d7bd 03ff 15be cdf2 58bd
00000050: 2e46 e23d e72f 123e 4d14 21bd 062b b8bd
00000060: a3f0 90bd 12cb 893c 6ba2 0a3e f854 823e
00000070: 0154 6a3d 8f71 83bd 5b69 473d 52d8 b43e
00000080: 9e3c 133f 9de2 e53e 6261 0c3d dd31 3ebd
00000090: 133e 8dbd b942 b23d c73d f33d f2e2 c13c
000000a0: 1bb2 56bd f475 5fbe da66 b7bd acf4 3a3c
000000b0: 7278 fb3c fc30 67bd 04e2 e8bd f092 77bd
000000c0: 2855 1dbc 7702 843c ca63 893b e767 90bd
000000d0: a349 bb3d 92e4 17bd e72f d7bc 5832 9abd
000000e0: 6f3b 69be 4179 0e3e 9647 b43e 18b5 423b
000000f0: 4032 78be 5257 b2be 4863 42bd 482e ba3e
00000100: 3d29 d33d 3571 8ebe bc9e 50be b0c1 b03e
00000110: 70b1 4f3e 3916 0e3e 9b55 d63c c07b 8a3d
00000120: 1871 923e c7ab 373e 05aa da3c 395d 023e
00000130: f1f0 e03d 50bc c53e ca37 ca3e 4c8b 963e
00000140: 71e3 49bd 58fd 8dbc 2a38 86be 0a28 84be
00000150: 2bf5 bbbd 186d d9bd 6317 cbbd 2a46 ed3c
00000160: a7a5 a33b e903 39bc 4528 c73c 7ce6 d1bd
00000170: 6534 d6bd a1e6 3cbe c1d8 1abc b444 98bc
00000180: f3ff 96bc c0a4 843c b4a3 cfbb 16d1 843c
00000190: 17e7 1cbd 1076 013e 486e 213d a3db a03d
000001a0: 472a babb 6d83 a8bc 44dc 4c3d d2eb 653d
000001b0: 52f8 d93c e363 82bd 4f85 c13d 2fed 2e3e
000001c0: a5f3 063e c1fc 983c 3f1d edbc 6a62 153d
000001d0: 831c b53e 9490 8b3e 38df 273d 00e6 103e
000001e0: 746d d83d fbe6 383e 72f8 8bbc fcef 13bc
000001f0: ec2d 233e b8e8 95bd 0601 70bd 9549 e83c
00000200: fc5a dabc 3fa5 a5bd 464f 953c 9211 813e
00000210: 6f21 773d ca1a e6bd db4b 38be fad6 1fbd
00000220: 8baa 7f3e 1e52 cbbd 56ce c53c 5ee2 4ebe
00000230: 231d ddbd 90d1 443d 6e16 9c3d d755 fb3d
00000240: 1d15 13be 81df 003d cc10 15bd 7b69 28bc
00000250: 3210 6c3e 51b3 7d3d
0.018723913 0.33223042 0.2836359 0.05646979 -0.0664929 0.0032614355 0.45315695 0.4356435
-0.16595401 -0.1554541 0.21213369 0.29391935 0.092037834 -0.1673524 -0.10427006 0.08082874
0.20218693 -0.10538184 -0.1464806 -0.052965928 0.11048542 0.14276086 -0.039326 -0.08992581
-0.07077148 0.016820464 0.1353852 0.2545545 0.05720902 -0.06418144 0.04868446 0.3532129
0.5751437 0.44899455 0.03427256 -0.046434272 -0.06896605 0.087041326 0.118770175 0.023667786
-0.05241595 -0.2182234 -0.08955164 0.011410873 0.030697081 -0.0564432 -0.11371234 -0.060442865
-0.009602822 0.016114457 0.004192804 -0.07051068 0.091449045 -0.037083216 -0.026267959 -0.075291336
-0.22776578 0.13913442 0.35210866 0.002970999 -0.24237919 -0.34832245 -0.047457963 0.36363435
0.103106 -0.27820745 -0.20373052 0.34522772 0.20282531 0.13875665 0.026163867 0.06761885
0.2860191 0.17936622 0.0266924 0.12730874 0.10983456 0.38620234 0.3949569 0.2940315
-0.04928917 -0.017332718 -0.26214725 -0.25811797 -0.091776215 -0.10616511 -0.0991657 0.02896412
0.0049941125 -0.011292436 0.024311194 -0.102490395 -0.10459212 -0.18447353 -0.009451092 -0.018587448
-0.018432593 0.01619184 -0.0063366536 0.016212981 -0.038306322 0.12642694 0.039411813 0.078543924
-0.0056813094 -0.020570481 0.05001475 0.0561331 0.026607666 -0.06366708 0.09449255 0.17082666
0.1317888 0.01867521 -0.02894461 0.036470808 0.35373315 0.27258742 0.040984362 0.14150238
0.105677515 0.18056862 -0.017086241 -0.009029385 0.15935487 -0.07319778 -0.058594726 0.0283554
-0.026654713 -0.08088159 0.018226277 0.25208718 0.06033462 -0.11235578 -0.17997687 -0.039023377
0.249674 -0.09927772 0.02414624 -0.2020354 -0.10796573 0.048051417 0.076214656 0.12272232
-0.14363523 0.03146315 -0.036392972 -0.010279055 0.23053053 0.061938588

conv1.bias f4 [6]
00000000: f463 72bc 5560 f5bc ba6d 8bbb 8453 0c3e
00000010: 8570 b4bb 3ab7 aa3e
-0.0147943385 -0.029953161 -0.004255024 0.13703734 -0.0055065774 0.33342916

conv2.weight f4 [16, 6, 5, 5]
00000000: 09cd 35bd 0387 c4bd f702 81bc f68e fcbc
00000010: 5aa1 a4bd 7611 11bd 9c09 c6bc 8b56 f23d
00000020: 917c a43d 1b40 3c3d 7b78 d03c 5ee7 203e
00000030: 1c36 fb3d 8286 c53d 1cd1 8b3d c7fa a83d
00000040: 676f 023e 1b9d 57bc 005d 33bd 457a 37be
00000050: 9f43 743d 0831 09be 4679 7fbe e2d9 4bbe
00000060: 5c5b 6f3c d056 933c 68ec 733c a9c9 9d3a
00000070: d185 a2bd d8f2 9fbd 2366 5d3d 7f80 8e3d
00000080: bd91 263d 2a1e 313e 2cce 6c3e 51c8 72ba
00000090: 5ca6 3d3e b068 903e cbf1 ee3d 5e3d 283d
000000a0: 448e 873d 0593 343d 1818 cc3c c86c 4bbe
000000b0: 1c62 9bbe 8d6e 8ab9 4d88 f6bd d704 39be
000000c0: 6a2d a3be 31dd d23b 993a 963c cb31 133d
000000d0: a81c 153e 2a96 613e afa2 ec3d 8dc5 d73c
000000e0: 6dd9 3a3e 8cbc 303e 74aa 423d 261d fdbd
000000f0: da22 223e 8048 c73d 4732 00bd 909c 0ebe
00000100: 7c65 dcbd f4d7 f83d 2e38 1dbe 0c20 72be
00000110: 3e0d 82bb 78d3 583d bcd9 22be ab5b 42be
00000120: be04 b1bd a7dc cc3c 249b 633d 0023 26bd
00000130: 0ce2 48bc aca4 2e3b ffe5 40bd bc35 1fbd
00000140: e6c0 99ba a5e8 b6bd 79fd e5bd c771 f7bc
00000150: e73b 05bd 6bed d5bd 5bf8 84bc d9f7 ee3d
00000160: 2920 5a3d d5cd 88bb 4ec6 98bd f301 e73b
00000170: 1a3f 5abd 4fa9 dfbc 454c 8cbd 120d a63b
00000180: 8aa0 1bbc 8f16 e03b a0cf 83bd 5899 483c
00000190: 750a 85bb 1ec6 073d c9ee 8dbc 36f7 db3d
000001a0: 1d9d 9c3d 8cea 863d e9c5 5c3d eee3 173e
000001b0: 25cf 1c3d 27d7 0abd 916e 84bc bc18 a63d
000001c0: 89ec 003d 45d1 0b3d 39e1 433c a1c7 803d
000001d0: 0d34 0abd b14d b3bd 026a f9bd d519 503d
000001e0: 450e 72bd 6df8 91bd c89c 2cbd 05c0 66bd
000001f0: ce98 553c 00d1 293d 83f4 63bc d731 e63c
00000200: 4009 b5bc 9bd9 94bb b7b5 973d 77d0 9c3d
00000210: 0925 933c 1953 563d 4e57 2f3b e7e9 70bd
00000220: 13e6 ad3d 1141 083d bc92 9cbb 2ea6 433c
00000230: eb4f 133d eaf5 993d 3c48 6ebc 7aa9 3bbd
00000240: f662 54bd 9eaf 803c c5ac 22bd e096 93bd
00000250: 9f46 8fbd b3d6 e93b 40a7 893d 498f 2bbd
00000260: 797b 1dbe f17f c5bd d6ca ba3c 1fd7 813c
00000270: 5da5 ae3d 0c4a 9ebd 9336 7bbd 3aa7 51bd
00000280: a0d0 a4bd 7c64 b93d ffad d8bd bd30 e4bd
00000290: 09b5 c2bd 669f 68bc 196d 163e e2a6 363d
000002a0: 16c6 19bd d5db c1bc 696e bebd 110c ac3d
000002b0: aa73 f83c 055e c93c 6ceb 54bb 96fc 6cbd
000002c0: c766 20bd 8657 b53c bd17 023d 269d 9b3c
000002d0: 91b6 9f3d 60ff 61bd 3c06 a93d 3dd0 cd3c
000002e0: 85b4 6f3c ea17 b33e 2982 cc3d ad18 60be
000002f0: c40e cebd 9af9 8ebd 244e 2c3e 9cf4 973e
00000300: c236 873d a12a 74bd 3b98 22bd 8be1 1f3d
00000310: 1693 103e 640f f53c d2b5 843d 4f4a 653c
00000320: 455b fdbc 22ef eebd 5aa4 f0bd 0e94 62bd
00000330: 6ccb 17bd 20d0 0c3d 2c04 80bd b4ca 803d
00000340: f6b7 443d 23f6 a2bd dfef fa3d d70b 6c3d
00000350: 2d68 76bd 314b a03d c3cc 5abd f7c6 0c3e
00000360: 4008 543e 1112 853d dc07 b83d c7f7 03bc
00000370: cbe2 0c3d ca8d 163e f307 543e 61ad 403e
00000380: 1f28 95bd e7e5 0f3d fee9 a93d 92b5 c93d
00000390: 4bf5 0fbd 23a0 00bd a0b8 d63c 6831 1b3e
000003a0: c0a4 433e 2399 1c3d 6fe0 6abd 3cac 553d
000003b0: 84f5 2cbd 782d 7d3d 4618 2d3e 8d28 923d
000003c0: 5c12 583c 61ba 453b 974e efbd eed2 c7bc
000003d0: e664 563d c20a 0cbc b7d1 d6ba 753d 183d
000003e0: ccac 8f3c 45a1 8ebc 7a80 b9bd d853 0ebe
000003f0: f947 debd d078 3abd 37b3 813d 3907 cebc
-0.04438499 -0.09596064 -0.015748484 -0.030829888 -0.08038588 -0.035417043 -0.024174504 0.11832913
0.08031572 0.045959573 0.025448075 0.1571326 0.1226618 0.09644796 0.06826994 0.08250957
0.12737809 -0.013160015 -0.043789864 -0.17917736 0.0596348 -0.1339761 -0.24948606 -0.19907334
0.014609184 0.017985731 0.014887907 0.0012038249 -0.0793568 -0.07809991 0.054052483 0.069581024
0.04066633 0.17296663 0.23125523 -0.0009261417 0.18520492 0.2820487 0.11667212 0.04107415
0.06618932 0.04408552 0.024913833 -0.19865716 -0.3034829 -0.00026403778 -0.12037716 -0.18068253
-0.31870586 0.0064350595 0.018338488 0.03593616 0.14561713 0.2202994 0.11554467 0.026339317
0.18247004 0.17259425 0.047525838 -0.12359075 0.15833607 0.09730625 -0.03129795 -0.13926911
-0.10761544 0.12150565 -0.15353462 -0.23645037 -0.0039688637 0.052936047 -0.15903372 -0.18980281
-0.086434826 0.025007559 0.055567876 -0.040560722 -0.012260925 0.0026648445 -0.04709434 -0.038869604
-0.0011730462 -0.08931092 -0.11229987 -0.03020562 -0.03252783 -0.104456745 -0.016231706 0.11668367
0.053253327 -0.0041749277 -0.074596986 0.007049793 -0.053282835 -0.027302412 -0.06850485 0.005067476
-0.009498725 0.0068386267 -0.06436086 0.012243591 -0.0040600845 0.033147924 -0.017325776 0.10740511
0.076471545 0.06587705 0.05389968 0.14833042 0.038283486 -0.03389659 -0.016166003 0.081101865
0.031475578 0.03413512 0.011955553 0.06288076 -0.033741046 -0.08755053 -0.121784225 0.050805885
-0.05909564 -0.071274616 -0.042141706 -0.056335468 0.01303692 0.041459084 -0.013913277 0.028099937
-0.022099137 -0.004542542 0.07407706 0.07656949 0.017961996 0.05232534 0.0026754919 -0.058816817
0.08491149 0.033265177 -0.0047782343 0.011941476 0.035964888 0.075176075 -0.014543589 -0.045815922
-0.05185219 0.01570874 -0.039715547 -0.072065115 -0.06995892 0.00713619 0.067213535 -0.041884694
-0.15379132 -0.096435435 0.022801798 0.015849648 0.08527634 -0.07728967 -0.061331343 -0.05118487
-0.080476046 0.09052369 -0.10580062 -0.111421086 -0.09507186 -0.01419816 0.14690055 0.044592746
-0.037542425 -0.023664394 -0.09298403 0.08400739 0.03032859 0.024580965 -0.0032488955 -0.057858072
-0.039160516 0.022136461 0.03176092 0.018995833 0.07798494 -0.055175185 0.08253142 0.02512371
0.014630442 0.34979182 0.099857636 -0.21884413 -0.1006141 -0.069812015 0.16826683 0.2967881
0.06602241 -0.059610967 -0.03969596 0.039033454 0.14118609 0.029914565 0.06479992 0.013994767
-0.03092731 -0.11666705 -0.117500976 -0.055316977 -0.037059233 0.03437817 -0.06250796 0.062886626
0.048027 -0.07957103 0.12252783 0.05762848 -0.060157944 0.078268416 -0.053417932 0.13747774
0.20706272 0.064975865 0.08985874 -0.00805468 0.034395974 0.14702526 0.20706157 0.18816139
-0.07283043 0.03513136 0.082965836 0.09849085 -0.03514604 -0.03140272 0.026211083 0.15155566
0.19105816 0.03823198 -0.057342943 0.05216621 -0.04222633 0.06181094 0.16903791 0.07136641
0.013187971 0.0030170905 -0.11684912 -0.024392571 0.052342318 -0.008547487 -0.0016389404 0.037167985
0.01753845 -0.017410884 -0.09057708 -0.13899171 -0.108535714 -0.045525372 0.06333011 -0.025149928

conv2.bias f4 [16]
00000000: ed57 48bc 666a 57bd 138e 1e3d d03b 53bd
00000010: 329b 8c3d d0ec c13d 3be7 433d fb4f cdbd
00000020: 3972 41be 8e0b dabd 9bfd 773e 0615 9cbd
00000030: a106 3fbd 6333 7c3e 34d7 223e 6d5b a9bd
-0.012227994 -0.052591704 0.03870971 -0.051570714 0.06865539 0.094689965 0.04782794 -0.10025021
-0.18891229 -0.10646735 0.24217837 -0.076211974 -0.04663718 0.24628977 0.15902406 -0.08269391

fc1.weight f4 [120, 400]
00000000: 0359 c7bd e945 31be 72ab 8abc 9129 363d
00000010: ea4c 833d 70e2 a4bd 46b9 38be b29f cfbd
00000020: e5c4 7c3c cfe7 20bc dd80 b1bc 6b4b 2cbd
00000030: 9d11 c23c 3754 8a3d bbda 583c ed6f 503b
00000040: d73e 033e b58d 1abc 5b98 24bd 1f4e 88bd
00000050: 2814 29bb 00c2 5c3d f2fd f3bb 416b d4bc
00000060: 800f 4abd 24e8 34bd fa8e f6bd db41 333c
00000070: d666 763d 70d8 e1bc 1b55 3bbd bba5 91bb
00000080: 61db 3dbd 568d 5a3d d805 34bd 4c96 083c
00000090: 6a4e f7bb db2d 68bc 1665 c9bb 3207 e8bd
000000a0: fa5c 9abd bc95 98bd dab0 0b3a 64f3 c2bc
000000b0: 795f 4cbd 1660 d1bc ccd0 023c 2e72 313b
000000c0: 1cb5 37bb 58b2 73bd 77d6 c3bc 7903 b3bd
000000d0: 42ad 093c 126a 143d 8216 c13d 05c4 a5bd
000000e0: 5fce f2bd 4d49 863d bfda 52bd 46e2 2bbd
000000f0: 6b10 033c 604a 9dbd e3d4 04bc 5a20 6bbd
00000100: 9afc b4bc 89e2 51bd d524 ed3c c763 3c3d
00000110: 01e2 54bd 52b6 57bd a108 693d 7712 eb3c
00000120: a565 993d 180c f5bc 952c a4bd 4f97 f2bd
00000130: c6a3 2cbc 26d9 123d a0f2 9fbd c1c6 0dbd
00000140: 088d 8dbd 0722 633d 2b86 6b3d d18b f9bd
00000150: 4cf2 66bc e989 753d 98eb ffbb a1e8 433d
00000160: 3a98 9fbd 4a9c b8bd fc50 d13c 8bd6 013d
00000170: 61b4 823c 8bf6 34bd c1c7 edbd 33da 2ebc
00000180: 030a 463d 4555 85bc 0003 9abd 2354 ccbd
00000190: 5343 efbd 48ab 71bd 3953 4bba bd7c 9b3b
000001a0: 90d6 0cbd 7d2c b3bd 2b0b 0abc df72 973d
000001b0: 8efa cc3d ac7b 85bc beff 1ebd 7bb5 683d
000001c0: 2b6d d6bc 20a9 27bd 9d8b 26be a469 3cbd
000001d0: b761 00bd d269 8b3c 49aa 1d3c dbaa 57bd
000001e0: 2b49 8ebd 2d9c 14bd d9a4 9b3c 595d ea3c
000001f0: acb3 d5bd 94bb edbd 2044 96bd 663a 143d
00000200: 5f8b 903c 55b8 813d a3e2 a7bd fb6d 1b3c
00000210: bc75 2f3d 78ca 9c3d 07cf 26bc e690 72bc
00000220: fd16 66bc 980d 553d 65d7 0a3d fea4 67bb
00000230: eafd 893c d9f6 193d a29b 9dbc db1f 32bd
00000240: 6618 5abd 287b 003d 36a1 80bc f79f 2bbc
00000250: b579 dd3c eebe 0abb 0785 ffbd b6da afbd
00000260: 2a62 f9b9 42c4 8e3d f78f 443c 1727 a4bc
00000270: 2e05 e1bc 347a 3a3b 3405 82bc 0bf6 a4bd
00000280: deed 62bc b974 e53c 0ed8 cf3c 279e 123d
00000290: bba7 ccbd 673c 4abd e181 a8bd abff 3c3b
000002a0: 9860 063d 96d2 d1bb 5628 f6bb fee8 63bd
000002b0: 1492 263d cbef 2e3d 349a 81bd d094 11be
000002c0: 4146 71bd b64e e9bd a5ee d6bd 5930 2b3d
000002d0: aec3 21be 0f9d 87bc a04a aabd c85f 283d
000002e0: be93 43bc 65c2 5fbd 266f 76bd da63 8abd
000002f0: 3702 84bc 7bc5 16bc cd9d 8dbc 60ed 0bbd
00000300: 1bc9 5f3c edb1 bf3c c36b b4bd 2581 14bd
00000310: 5eed 85bb 3a15 efbc 1f85 603c f3a1 84bd
00000320: 693c 2abe 9534 c3bc 4258 adbc 9604 60bd
00000330: 17d4 ddbd 16e2 3abe e0cc 6b39 93f7 30bd
00000340: d432 89bd 3384 28bd 7319 84bd 6415 983c
00000350: fadf 57bd e788 76bd 22c7 a53c 38d0 52bd
00000360: 5b59 6b3d 1c94 20bc e820 8bbc a488 aebd
00000370: 079d 07bd 4926 17bd 6c42 14bd 743c 35bc
00000380: 2051 0abe 9a10 04be c09f bbbd 6977 28bd
00000390: e2b5 50bd 82a0 f6bb 63eb e6bd 08c0 0cbd
000003a0: 3fec d8bc 53f2 b7bc 5752 bcbb 2ccf d8bb
000003b0: 49bd 683c 12fb bfbd 7bd7 b5bc 96b9 b0bd
000003c0: 6b64 2ebd aa75 b2bd 2847 9abd c806 41bd
000003d0: 55df a8bd 20b0 02bc 214e 96bd c7f6 42bd
000003e0: 5a8d 563a c50f 95bd 973d e83c aa13 aa3d
000003f0: 3427 24bd c41a 113d cd7a 653d aac6 4b3d
-0.097337745 -0.17311825 -0.016927455 0.044473235 0.064111546 -0.08051002 -0.18039426 -0.10137881
0.015427803 -0.0098208925 -0.021667892 -0.04206411 0.02369004 0.06754344 0.013235743 0.0031804994
0.1281694 -0.0094332 -0.04018436 -0.066555254 -0.0025799368 0.05389595 -0.007446044 -0.025930049
-0.04933119 -0.0441667 -0.12038989 0.010940994 0.060156666 -0.027569026 -0.04573546 -0.0044448054
-0.046351794 0.053357445 -0.043950886 0.008336615 -0.0075471895 -0.014171089 -0.0061460836 -0.113294974
-0.07537265 -0.074504346 0.0005328782 -0.023797698 -0.049895737 -0.025558513 0.007984351 0.0027076113
-0.0028031534 -0.059496254 -0.023905976 -0.08740897 0.008403124 0.03623397 0.09428121 -0.080940284
-0.118557684 0.0655695 -0.051478144 -0.041963838 0.00799952 -0.076802015 -0.008107397 -0.0574039
-0.022093106 -0.05124143 0.028948227 0.045993593 -0.051973347 -0.05266411 0.056892995 0.028695328
0.0749009 -0.029912993 -0.08016316 -0.11845266 -0.0105370935 0.03585162 -0.07809949 -0.034613375
-0.06911665 0.055452373 0.057501 -0.12184871 -0.014095854 0.059945974 -0.0078100674 0.047829274
-0.07792707 -0.09014185 0.025551312 0.031698745 0.015955152 -0.044180434 -0.11610366 -0.01067214
0.04834939 -0.016276011 -0.075201035 -0.09976985 -0.11682763 -0.059001237 -0.00077562366 0.0047450946
-0.03438431 -0.0874872 -0.008425514 0.07394957 0.10008727 -0.016294323 -0.038818114 0.0568137
-0.026175102 -0.040932775 -0.16264196 -0.045999184 -0.031343188 0.017018232 0.009623119 -0.052653175
-0.069475494 -0.036281753 0.018999504 0.028608965 -0.1043466 -0.11608043 -0.073372126 0.036188506
0.017644582 0.06333987 -0.081975244 0.009486671 0.04283689 0.07655805 -0.010181195 -0.014805054
-0.014043567 0.052014917 0.033896822 -0.0035346146 0.016844708 0.037588928 -0.01923925 -0.04348741
-0.053245924 0.03136745 -0.015701871 -0.01047515 0.027035573 -0.0021170932 -0.12476545 -0.08586638
-0.0004756612 0.06971027 0.0119972145 -0.02003817 -0.02746829 0.0028454186 -0.015871622 -0.080547415
-0.013850657 0.02800976 0.025371578 0.035795357 -0.099929295 -0.04937401 -0.082278974 0.0028838913
0.032806963 -0.0064032776 -0.0075121326 -0.05564212 0.040666655 0.042709153 -0.0632824 -0.14216924
-0.05890489 -0.11391966 -0.104947366 0.041794155 -0.15797302 -0.016554384 -0.08315015 0.04110697
-0.01193708 -0.05462875 -0.060164593 -0.067573264 -0.016114337 -0.009202356 -0.01728716 -0.034161925
0.013658787 0.023400271 -0.088096164 -0.036255974 -0.0040871343 -0.029184926 0.013703614 -0.06476202
-0.16624607 -0.023828784 -0.021160249 -0.054691873 -0.108314686 -0.18250307 0.00022487668 -0.043204855
-0.06699148 -0.0411417 -0.064501666 0.018564887 -0.052703835 -0.060189154 0.020236555 -0.051468104
0.057458263 -0.009800937 -0.016983464 -0.08522156 -0.033108737 -0.036901746 -0.036196157 -0.011061776
-0.13507509 -0.12896958 -0.09161329 -0.041129503 -0.050954707 -0.0075264582 -0.11275365 -0.034362823
-0.026479838 -0.022454416 -0.0057471204 -0.0066164937 0.014205285 -0.0937406 -0.022197476 -0.08629148
-0.042576235 -0.08713849 -0.07533103 -0.047125608 -0.08245722 -0.007976562 -0.07339121 -0.047598626
0.0008184515 -0.072783984 0.02834968 0.08304532 -0.04007645 0.035425916 0.056025315 0.049750008

fc1.bias f4 [120]
00000000: 4900 01bd 7698 8cbc 4da5 b13b 13eb 87bb
00000010: 9034 143d 034d 7f3d 7b41 1f3d b7b4 0fbd
00000020: 2ba2 aebc e675 1dbd dbf2 5ebc cd96 af3d
00000030: a998 083b c1eb 2cbd 5a7a 273d 3ca8 a9bc
00000040: 5ab7 a1bc f8fd 003c 4486 d83d f046 053d
00000050: cc15 e13c 6224 a7bb 794e c8bc da9e 013d
00000060: dc69 5b3d 3a00 9cbb 6548 a23d f700 933d
00000070: d0ec cc3d c15d 21bd 9bbe b03c f046 10bd
00000080: 341c 8c3d 92e3 e73d 537b f0bc 35d0 d9bd
00000090: 7f72 473b bcfb 1cbd 9367 0a3d bb50 97bd
000000a0: 61c1 8a3c 936d 0339 38e8 443d 74aa 5e3d
000000b0: 53de 22bd 4eea 143d fe9c 0ebd 7a34 8dbd
000000c0: c633 de3d da87 1c3e a05a 023e 7462 acbc
000000d0: e98c 083d 3159 913d d82a 8fbc 1bb7 a0bc
000000e0: a342 ab3d eb4f 94bc 2d13 b43d bc7c 1abc
000000f0: 487b 23bd 804e 053d fbc8 28bd de9b 193d
00000100: c5c4 a13d d752 b53d 1561 633d f20a e43d
00000110: 49b6 8abc e4f0 1a3c 89c3 a43d b54a 213d
00000120: 0083 bdbc 63e5 06bc 39f1 d93d f628 203d
00000130: f963 f03d 5bb8 1eba 54ad 15bd b760 07bd
00000140: 0316 9cbd 542c 823c dbd0 eabd 8c2b fc3a
00000150: dacd ffbc f966 29bd a410 e33d 45e1 98bb
00000160: ee40 2c3d 188e bebc 6822 a4bc 35f4 19bc
00000170: a30c 79bb ada4 2bbd ea92 86bc 5a24 ef3d
00000180: f633 32bd 2cbb e33c 30bb ffbb d4ed 123c
00000190: 5174 c23c e0af 11bc 701d c43c 2578 89bb
000001a0: 1005 bebc 4a5b 763d cfa9 513d 2da2 bd3a
000001b0: 98ef a83d 6a5f ac3d 15ad aabb ee6b 363c
000001c0: 436e 833d 9cd1 6f3d d48d b2bc 6642 733c
000001d0: 6b48 b4bb ed83 fe3d dffc e1bb 260e 213d
-0.031494413 -0.017162543 0.0054213167 -0.004147896 0.03618294 0.062329303 0.038880806 -0.035084452
-0.021317562 -0.038442515 -0.013607706 0.08573685 0.0020842946 -0.04221702 0.040888168 -0.020710103
-0.01974075 0.007873051 0.10572484 0.032538354 0.027476214 -0.0051007727 -0.024451481 0.031645633
0.053567752 -0.004760769 0.079239644 0.071779184 0.10006106 -0.03939605 0.021575263 -0.0352239
0.06841317 0.113227025 -0.02935568 -0.106354155 0.0030433235 -0.03832601 0.033790182 -0.07388445
0.016937913 0.00012533953 0.048073024 0.054361776 -0.039762806 0.036356263 -0.03481769 -0.06894775
0.10849719 0.15286198 0.12729883 -0.02104304 0.033337507 0.0709709 -0.017476484 -0.019618561
0.08362319 -0.018104514 0.0879272 -0.009429153 -0.039912492 0.032545567 -0.041207295 0.037502162
0.07898859 0.08853691 0.055512507 0.111349 -0.016932623 0.009456847 0.08045108 0.039377887
-0.023133755 -0.008233401 0.10641713 0.039101563 0.11737818 -0.0006054693 -0.03654225 -0.03305122
-0.07621386 0.015890278 -0.11465617 0.0019239052 -0.031226087 -0.041357968 0.11087158 -0.004665526
0.04205411 -0.023261115 -0.020035937 -0.009396602 -0.0038001917 -0.041905094 -0.016427476 0.116768554
-0.043506585 0.027799211 -0.007804297 0.008967835 0.023737105 -0.0088920295 0.023939818 -0.0041952305
-0.023195773 0.060145654 0.051187333 0.0014467888 0.08248824 0.08416636 -0.0052086213 0.011134131
0.06417515 0.05854951 -0.021796145 0.014847374 -0.005501797 0.124275066 -0.0068965997 0.039320134

fc2.weight f4 [84, 120]
00000000: 9adb 353d 8513 99bd 9412 703d c6cf 743d
00000010: 5f12 0b3e 2101 b23d 8240 7bbd ce77 ae3c
00000020: a82f a1bc b4ab 71bc 59e5 10bd 5373 9ebc
00000030: 432b 6a3d 7e10 3cbd 608e f5bc 580f dfbc
00000040: ffa7 1f3d 597f f4bc e1d8 523d 6dea 50bd
00000050: 2f42 27bd ef92 82bc 3706 4e3d b409 3a3d
00000060: 6a1f c63c ffc3 023d 2af4 8cbe 61fd a33d
00000070: c3e2 a73d 6981 a73d fb20 aa3d 8dcc adbd
00000080: 3d51 d6bc 10dc 283d 5d78 723d afca 00be
00000090: dc47 77bd 5918 ae3d ee57 cd3d cdea 92ba
000000a0: fd8a babd f42e b1bc 5b2b d23d f87e 43be
000000b0: 48e6 543d b695 cbbb 0728 813d d344 6b3d
000000c0: 62cf 133e 52ba 963d 8c57 933c b555 013d
000000d0: 6b25 b83d bf77 303c 888b 943d 48b5 69bd
000000e0: 2415 473d ee42 86bc d8c5 d33d ce30 a53d
000000f0: 814b 6cbc 987d 053d 8643 5a3b 563a e23d
00000100: 2b36 2a3d 192d 32bb e10e 933d d144 873d
00000110: c8ae fe3d 0af9 9fbd 63be 05bd 5b8a 61bd
00000120: eaa7 503d 8c97 513d f2f6 c03d 9cfd 00be
00000130: 77eb 71ba bc47 a43b 4868 79bd 6610 9ebd
00000140: c1b8 f73c ca8c 42be 41bb 71bd 11be b3bd
00000150: e87f d63d 53e5 7cbd 39b5 ad3d e48d c33b
00000160: 2350 353d 6f52 55bd 6cea 933d c463 73bd
00000170: 1d7c b03d 9359 043d a985 5b3d b066 67bd
00000180: b748 c33d 02db ba3d 62c8 333d ab1c 993c
00000190: 820f fe3d 0da5 a5bd 7090 81bd 9a5f 783d
000001a0: 794e a63d 8471 ba3d 287d d73c 92b3 e03c
000001b0: 29e6 a3bd 67fe 8bbd 6597 d2bd c909 babd
000001c0: ddde 1dbd 3d44 15be 557c b23d d7a4 62bd
000001d0: 8d10 8ebc c45e b8ba e97c fcbc 0f6f 013e
000001e0: 4788 d73c 58f7 4abd b0f7 53bd f3d8 adbd
000001f0: 1284 9c3a 4918 e8bd 2e28 5abd 07db 5cba
00000200: 803e efbc 41e2 293d a6b3 7cbc 506c 693d
00000210: 245f 9abd 8b9c 61bd 73a3 493d a81e 883b
00000220: b4fa 24bc b556 683d 77e4 fabc 3bba 19bb
00000230: 20b5 493d 4a79 b9bd 7d24 573d b894 dbbc
00000240: d457 56bd 5881 eb3d 3f65 5c3c e1c3 a23d
00000250: bdcc a93d 067f acbd 78ae 78bd 9b50 963d
00000260: 30fa e1bc 1ff9 7d3c 32af 95bc b8ca 023b
00000270: e365 4cbd d4dc 90bd 174a 93bc fae9 4fbd
00000280: c29d 913d 5ba9 f4bc 80c3 4a3c 8c39 c2bd
00000290: 3736 a4bd 4eed 93bd 4285 b2bd a6e6 713d
000002a0: 8e0c abbc 4681 cabc e9c9 033d 09c4 253c
000002b0: b7c1 e9bd 390d ca3c b92b b6bd 946a 3ebb
000002c0: 22ca a1bb eb87 9fbd c04b 8939 280b bbbd
000002d0: c153 1bbd ee85 b1bd d618 a4bc 705d ac3b
000002e0: 274d 813d 4604 f3bc bd10 87bd b8f2 dc3c
000002f0: dd0b b1bd a9ba 7a3d ce30 24bd 3f4b 4d3d
00000300: c4ea cfbc 65e4 943d 1a76 ec3c 319a 69bc
00000310: 2751 60bc d52f d2bd 6407 52bd 0bec 113d
00000320: fac3 9b3d 0a52 713c 52a5 c7bd e363 3abd
00000330: 5535 c13d d2ac 74bb 66a6 323d c437 17bd
00000340: 1f4e 69bd 4b6d ad3a bc98 173d 7bde 3f3c
00000350: b284 b4bc 5716 24bd f747 aa3d 088b 25bd
00000360: 7269 66bd 85fe 393d 2429 84bc 7838 5d3d
00000370: ef0b aebc 0969 afbb 78f0 34bd 7c63 003d
00000380: 04f4 99bc 1d96 823d 8815 0c3e 3b21 b83c
00000390: 6369 a33c 749b 78bc 5cff 8bbd f905 a6bb
000003a0: 40cb 5d3d 660c 2ebd 5cd8 aebd 5b27 a23d
000003b0: 533d dfbc 492c 993c fb6d 9c3d e2b1 8dbd
000003c0: f99e f8bc 75d3 a2bc 6c8a fd3d 99ce e23b
000003d0: 0c61 3cbc 7ec0 003c ae28 1c3e 4687 3cbd
000003e0: b194 7b3d 103a 25bd a326 463d 9c92 37bd
000003f0: b460 3a3d b547 bf3d 62e9 89bd 4eb8 a23b
0.04439888 -0.07474426 0.058611467 0.05976846 0.13581227 0.086916216 -0.061340816 0.021297362
-0.019676045 -0.01475041 -0.035374973 -0.0193421 0.057170164 -0.045914166 -0.029975116 -0.027228996
0.038978573 -0.02984588 0.051476363 -0.051004816 -0.040834602 -0.015939204 0.050298896 0.04541941
0.024184901 0.031925198 -0.27530032 0.080073126 0.08197548 0.0817898 0.08307072 -0.084862806
-0.026161784 0.041225493 0.05919682 -0.12577318 -0.060371265 0.08500738 0.10026537 -0.0011208892
-0.09108541 -0.021628834 0.10262176 -0.19091403 0.051977426 -0.0062129153 0.06306463 0.057438683
0.14434579 0.073597565 0.017986082 0.031575877 0.08991512 0.010770737 0.07253176 -0.05705765
0.048604146 -0.016389336 0.1034047 0.080659494 -0.014422298 0.03259048 0.0033304407 0.11046283
0.041555565 -0.0027187525 0.07180572 0.066049226 0.12435681 -0.07811172 -0.03265227 -0.055063587
0.050941385 0.051169917 0.09422101 -0.12596744 -0.00092285074 0.005013434 -0.060890466 -0.077179715
0.030239465 -0.1899902 -0.05901647 -0.08776487 0.10473615 -0.061742138 0.08481831 0.0059678424
0.044265877 -0.052080568 0.07222447 -0.059421316 0.08617423 0.032311987 0.053594265 -0.056494415
0.09535354 0.09123804 0.04389227 0.018690428 0.12405302 -0.080881216 -0.063263774 0.060638048
0.08120436 0.09103683 0.026304796 0.027429376 -0.08002884 -0.06835633 -0.102827825 -0.090838976
-0.038542617 -0.14576812 0.08715121 -0.055332985 -0.017341876 -0.0014066328 -0.03082128 0.12640022
0.0263101 -0.04955229 -0.051749885 -0.084886454 0.0011941215 -0.11332757 -0.053260975 -0.00084249716
-0.029204607 0.04147554 -0.015423691 0.05698806 -0.07537678 -0.05508093 0.049228143 0.004154045
-0.010069538 0.056723315 -0.030626519 -0.002345695 0.049245 -0.09056337 0.052525032 -0.026804313
-0.052329853 0.1149928 0.013451873 0.07947517 0.08291004 -0.08422665 -0.06071326 0.07339593
-0.027585119 0.01550129 -0.018272016 0.0019957256 -0.049901854 -0.070733696 -0.017979665 -0.050760247
0.07110168 -0.029865911 0.012375712 -0.094836324 -0.08018153 -0.07222997 -0.08716823 0.059057854
-0.02088001 -0.024719846 0.03217498 0.010117539 -0.11413901 0.024664508 -0.08895058 -0.0029055225
-0.004937426 -0.07789596 0.00026187114 -0.09132987 -0.03792167 -0.08668123 -0.020031374 0.005260162
0.06313544 -0.029665124 -0.065949894 0.026971206 -0.08644841 0.06121317 -0.040085606 0.05012059
-0.0253805 0.07270125 0.028864909 -0.0142579535 -0.013691223 -0.102630295 -0.05127658 0.0356255
0.07605739 0.014729032 -0.09748329 -0.045505416 0.094340004 -0.0037334454 0.04361572 -0.036918417
-0.056959268 0.0013231424 0.037010893 0.011710758 -0.02203593 -0.040060367 0.083145075 -0.040415794
-0.056252904 0.045408744 -0.016132899 0.05400893 -0.021245925 -0.0053530973 -0.04417464 0.031344876
-0.018793114 0.06376288 0.13680089 0.022476783 0.019947713 -0.015173782 -0.06835815 -0.00506663
0.054148912 -0.042492293 -0.08537361 0.07917663 -0.027250921 0.018697875 0.076381646 -0.06918694
-0.030349242 -0.019876221 0.123799175 0.006921601 -0.011497747 0.007858394 0.15249893 -0.046027444
0.0614211 -0.040338576 0.04837669 -0.044817552 0.04550238 0.09339849 -0.06733967 0.0049658185

fc2.bias f4 [84]
00000000: 7b65 183e 8e19 7cbd 51c4 2a3c c73d a8bd
00000010: fc83 c53c b56a bebd 93d0 bcbd 43f5 103e
00000020: aa02 06be cb3e 38bb a781 1e3d dd8d a23d
00000030: b907 da3c aa76 7fbd 3712 33bd 715a b23d
00000040: e4e7 dc3b 34b3 fa3d 2120 9bbc d35a bcbb
00000050: ed7d 973b a727 49bd da6e c23d 1da9 acbd
00000060: 29d7 103d abcf 06be c37e 76bd 8f73 10bd
00000070: 20c8 1dbd 8db6 ffbd f40b c63d f26e c6bd
00000080: e2b3 603d 15f6 90bc f8d8 1a3d 44cb 863d
00000090: 45da dfbd fcc2 1dbb e68c fe3d 082e 943d
000000a0: 06a3 0d3d 15f7 9e3d 6f65 d9ba 6c19 94bd
000000b0: a0c4 25bd e789 633e ef8a 913d d9b0 e3bc
000000c0: 368f 15bd 83e4 173e d7f7 0fbd 5d04 113e
000000d0: 8bce cbbd 1efd 8e3d 1a81 f33d 6dd2 b4bc
000000e0: 8f28 a6bb 0d31 35be c62e 1e3d 9f95 cb3b
000000f0: f331 a03d 0fb3 03bd b184 223d e140 9dbd
00000100: 6610 57bd 7782 ad3d 3ba5 333d 74a4 d5bb
00000110: 075e 803d bbb5 053d 89a6 983d fd83 273d
00000120: 7e8e 3dbd 33cb b6bd 0a54 1fbd 3f3d abbd
00000130: 31f0 5c3d c424 4cbd e18a bcbd 404f 203e
00000140: 20ee 713d c2be ecbc 7d02 9cbd 1e30 b03c
0.14882462 -0.06154781 0.010422782 -0.08214908 0.024110787 -0.092976965 -0.0921947 0.1415606
-0.13086954 -0.00281136 0.038697865 0.079372145 0.02661501 -0.062369026 -0.043718543 0.087086566
0.0067415107 0.122412115 -0.018936219 -0.005748132 0.004623166 -0.04911008 0.094937995 -0.08430693
0.035361443 -0.13165157 -0.060179483 -0.035266455 -0.038520932 -0.12485991 0.09670249 -0.0968913
0.05485905 -0.017695466 0.037804574 0.065817386 -0.109303035 -0.0024072519 0.12429218 0.07235342
0.0345793 0.07761971 -0.0016586016 -0.07231411 -0.04047072 0.22220574 0.071065776 -0.027794288
-0.03651353 0.14833264 -0.035148468 0.1416182 -0.09951504 0.06981872 0.118898585 -0.022072995
-0.005070753 -0.17694493 0.038618825 0.0062129046 0.07822027 -0.032153185 0.039677326 -0.0767839
-0.052505873 0.0847215 0.043858748 -0.0065198485 0.06267934 0.032644015 0.07453639 0.04089736
-0.04627847 -0.08925476 -0.038898505 -0.08361291 0.053940002 -0.04983975 -0.092061765 0.15655231
0.059064984 -0.028899554 -0.07617662 0.021507319

fc3.weight f4 [10, 84]
00000000: 2f39 abbd ef27 c03c c2cf dc3d 7dd3 913c
00000010: b97f 1fbe 5bc2 8c3d 27a9 a93d edd1 db3d
00000020: 1909 94bd d5b3 813d 8d3a 1ebd 5c3d dfbc
00000030: 3e99 0b3e 4856 3bbe 2599 9bbd 4c1a 4cbe
00000040: e660 23bd f5c6 c0bc fd04 d73d f832 a9bd
00000050: 1e2c 17bd 984a 1e3c a386 0b3d 6a61 263e
00000060: d56e efbd ffe8 e03d b3eb 81bd da66 34be
00000070: 0992 56be e692 58bd 3686 a9bd 0f89 133b
00000080: 1e8a d13c ac9b 013d 7b3c 0ebe 788f 6bbd
00000090: 3527 6d3c 01ec 34be f862 4c3d 25df 343d
000000a0: c7fb ecbc 7526 a43d 2584 36be d6c2 a9bd
000000b0: 46c2 06be 45a3 6dbd 0572 3b3d d7fa 343e
000000c0: a344 3bbc f3bf c03d c4cc 183c cb8f f0bc
000000d0: f424 92bd a660 52bd 459b c63c 47b0 59be
000000e0: 71c0 b4bd e889 01be e4e2 f3bc 1bbe 08be
000000f0: b1e8 49be 1ed2 e4bd 423f 2dbe 7638 993d
00000100: fcab 873d 9d73 863c 0839 353d a844 563d
00000110: 8dac 5ebe 3460 a53d 8cbe 3c3c b35e 923d
00000120: ab4f 863c 036f d0bd 73ee 89bc 4f99 8ebc
00000130: 2642 f13d 3c88 3b3d f2ae fabd 1ece 1f3e
00000140: 2239 903d fd04 dd3d 3be1 a53c d5c4 33bd
00000150: 24cb f63d e717 6d3d c91b 02be 175d f0bd
00000160: c073 99bc 3755 a7bb e7c3 833d d14e 67bd
00000170: 912f 0fbe 0a5d 2f3e ea04 2e3e d32f 493e
00000180: 2ede ab3d 6f13 bc3d 66aa 74be 0cfe 093e
00000190: 30c9 0b3e 9054 c43d 8733 cbbb 206d e33b
000001a0: bec4 e3bd 191e c9bd f599 89bd f487 063e
000001b0: ec40 9e3d 9003 0cbe 2df4 483d 465b da3d
000001c0: 528d 803d f246 68bd b94d 8b3d 1674 b0bd
000001d0: e472 57bd c836 0ebe fd80 5e3d 75c5 c83d
000001e0: e230 ebbd 7e2a 103e 52ed 2c3e b1ef 0ebe
000001f0: 192a 2bbe d135 1bbe f190 983d 6d1d 453d
00000200: 3ec2 abbc 1c39 113e 21a4 17be c33b 2a3e
00000210: b93e a3bd 901f 4a3c 387c 96bd a0d0 133e
00000220: af5e d0bd d35f 00bd c2f3 403e 5d0a fa3c
00000230: 91ab 28be 91b8 d8bd dbe4 33be 49dd 943d
00000240: 3731 83be e3f5 ffbd c621 e53d a347 a53d
00000250: f674 a3bd da19 48bc ec9e fbbd 3932 c03d
00000260: 8ca2 a2bd bb56 5bbe aa8e 2ebd d388 36be
00000270: bb59 4bbd 278c bb3d 85df 03be f585 c3bd
00000280: 5306 733d 2ef3 04bd 6b5f d23c 4155 c53d
00000290: 5dae 02be 2c89 06be b4f0 03bd 0db8 143d
000002a0: 5dd2 d23d bfb0 78bd 2f44 ef3d b966 aebd
000002b0: ce57 893d 82d6 313d 1b2d 0f3d 561d 1bbe
000002c0: 342e 943d b2fa 113d b80d d63d ea35 3ebb
000002d0: 9bf9 833d aa09 4abd f0d5 63be 6d14 b5bd
000002e0: 3c33 10be d5d0 98bd 8ed3 b8bd 5e58 13b9
000002f0: 6503 fdbc 1a6a babc e851 b7bd 91a4 9abe
00000300: 6958 133d f6f0 133e 2548 033d a9bf d93d
00000310: 200d f8bd 7c63 cebd 1830 cdbc 73fd 083d
00000320: fc56 8abc 89a5 58bd f89d 1b3d cff7 f3bd
00000330: 940a 88bd 382a 38bd 3a61 a93c 6efa 4f3d
00000340: 6ead ce3d 8d70 fdbc 228c 3dbd 09b6 013d
00000350: cda9 6ebd 3dfc 133e 871a 69bd 0a34 e23e
00000360: 0900 16be ebd7 b13d 9d04 463d 052a ebbd
00000370: 9a9f 823d b494 e6bc 0f5e adbd 7092 12be
00000380: d120 39be acfa 5e3d f84d 683e 4a58 53be
00000390: 2817 f7bd 456e 113e 344d 13bd 36e2 283d
000003a0: c5dd 653d b217 1cbe c0aa 353e b21f 1abe
000003b0: 9939 1dbe d6a1 c7bd f81a c4bc 0104 d8bd
000003c0: 9630 91bd df2e b23d f631 1b3b a782 86bd
000003d0: 62f4 d13d 3e1e cebd 6b2c 4a3d 641b 15be
000003e0: b98b 873b 7aa9 f03d 8577 35bd 9fe3 0ebc
000003f0: 2e61 9f3d 22c3 403d 49f5 bf3d 743a c13d
-0.08360516 0.023456542 0.10781814 0.01780104 -0.15576066 0.06873008 0.082842164 0.107333995
-0.07228298 0.06333128 -0.038630057 -0.027250938 0.13632676 -0.18294632 -0.075975694 -0.19931906
-0.03988733 -0.02353237 0.10498998 -0.08261675 -0.036907308 0.009661339 0.034063946 0.16248098
-0.116910614 0.109819405 -0.06343784 -0.1761736 -0.20954145 -0.05287447 -0.08277552 0.0022512113
0.025578555 0.0316426 -0.13890259 -0.05750987 0.01447468 -0.17668153 0.04989907 0.04415812
-0.02892865 0.080151476 -0.17823847 -0.08289115 -0.13160047 -0.058017034 0.045763034 0.17673813
-0.0114299385 0.094116114 0.009326164 -0.02936544 -0.071359545 -0.051361702 0.02424396 -0.2125865
-0.08825768 -0.12650263 -0.029771276 -0.1335377 -0.19717671 -0.11172889 -0.16918662 0.07481472
0.066246 0.01641255 0.044243842 0.05231157 -0.2174551 0.0807499 0.011520039 0.07146969
0.01639541 -0.10177424 -0.016837334 -0.017407088 0.11780195 0.04578422 -0.122403994 0.15605971
0.07042147 0.10791967 0.020249 -0.043888886 0.12050465 0.057884123 -0.12705912 -0.117365055
-0.018731952 -0.005106594 0.0643385 -0.05647165 -0.13982989 0.17125335 0.16994062 0.1964715
0.08391987 0.09183394 -0.23893127 0.13475817 0.13650966 0.095864415 -0.006201211 0.006940499
-0.1112151 -0.09820194 -0.06718818 0.131378 0.077272266 -0.13673234 0.04906099 0.1066194
0.06276955 -0.056708284 0.06801934 -0.08615892 -0.052599803 -0.13888085 0.05432223 0.09803287
-0.11483933 0.1407871 0.16887406 -0.13958623 -0.16715278 -0.15157248 0.074495204 0.048123766
-0.020966645 0.14181942 -0.14808704 0.1662436 -0.07970948 0.012336627 -0.073479116 0.14435053
-0.101743095 -0.031341385 0.18842986 0.03052252 -0.16471697 -0.10582078 -0.1756777 0.07268769
-0.25623485 -0.12498071 0.111880824 0.08070304 -0.07981293 -0.012213195 -0.12286171 0.09384579
-0.079411596 -0.21419804 -0.042616524 -0.17825632 -0.04964612 0.09157591 -0.12878235 -0.09547035
0.059332203 -0.032458477 0.025680264 0.096354015 -0.12761827 -0.13138264 -0.032211974 0.036308337
0.1029403 -0.060715433 0.11682927 -0.085156865 0.067062005 0.04341746 0.034955125 -0.1514791
0.07235375 0.035639472 0.104518354 -0.0029023835 0.06444093 -0.049325623 -0.2224958 -0.088417865
-0.14082044 -0.074617065 -0.09024726 -0.00014051932 -0.030885408 -0.022755671 -0.08951169 -0.3020368
0.035972986 0.14447388 0.032051224 0.106322594 -0.121118784 -0.10077569 -0.025047347 0.033444833
-0.01688718 -0.05289224 0.037992448 -0.119125 -0.066426426 -0.044962138 0.020676244 0.050775938
0.10091673 -0.030937457 -0.04627622 0.031667743 -0.058267403 0.1445169 -0.056910064 0.44180328
-0.14648451 0.08683761 0.048344243 -0.11482624 0.06378098 -0.028147079 -0.08465206 -0.14313674
-0.18078925 0.054438278 0.22685993 -0.20639148 -0.120649636 0.1420222 -0.0359623 0.041231357
0.0561197 -0.15243414 0.17740917 -0.15051153 -0.15354003 -0.09747665 -0.023938641 -0.10547639
-0.07089345 0.08700346 0.0023680902 -0.06567889 0.102516904 -0.10064362 0.049358767 -0.1456123
0.0041365293 0.11751075 -0.044303436 -0.008721261 0.077822074 0.047061093 0.09372956 0.09434977

fc3.bias f4 [10]
00000000: a6fb a2bc 7919 023d 2970 b7ba 473a 6cbd
00000010: d5da 54bc 5a45 e13d e2b7 9c3d 7fca 8d3d
00000020: 821c a1bd 221a d3bc
-0.019895386 0.031762574 -0.0013995218 -0.057672765 -0.012991627 0.10999556 0.0765226 0.06923389
-0.078667656 -0.025769297
