weights/standard.pth (torch, 249735 bytes, 10 tensors)

conv1.weight f4 [6, 1, 5, 5]
0	0x3e2af9be	0.16696832
1	0x3e01ff04	0.12694937
2	0x3e2fcc8e	0.17167875
3	0x3e2b7606	0.16744241
4	0x3d53ea32	0.051737018
5	0x3e187d7e	0.14891621
6	0x3e3ebe15	0.18627198
7	0xbdb46ad7	-0.088094406
8	0x3e5dd008	0.21661389
9	0x3e851823	0.25994977
10	0x3e15b1de	0.14618632
11	0x3e783930	0.24240565
12	0x3daba920	0.083818674
13	0xbd4740cf	-0.04864579
14	0x3c8e8be2	0.017400686
15	0x3d808e66	0.0627716
16	0xbcd53413	-0.026025807
17	0x3da2419e	0.07922672
18	0x3e7ed32a	0.2488524
19	0x3e6c7fa1	0.23095562
20	0x3d6afb97	0.05736884
21	0x3e1a3ae1	0.15061523
22	0x3db6f414	0.08933273
23	0xbdf1b217	-0.11801546
24	0x3e2e68ce	0.17032167
25	0xbd9f6634	-0.077831656
26	0xbce8b151	-0.028404864
27	0x3e11516d	0.14191218
28	0x3e7ad9ca	0.24497142
29	0x3d43e946	0.04782989
30	0xbcdfdde4	-0.027327485
31	0xbbb25322	-0.005442039
32	0x3e7df553	0.24800615
33	0x3e8b6305	0.27223983
34	0x3e76a67c	0.24086946
35	0x3e518220	0.20459795
36	0x3e7eb6ac	0.24874371
37	0x3e6b757d	0.22994037
38	0x3e900c51	0.28134397
39	0x3e217ad0	0.15769506
40	0xbc0d6cf6	-0.008631935
41	0x3e088071	0.13330247
42	0x3e87342e	0.26406997
43	0x3e835958	0.256541
44	0x3e443dbb	0.19164173
45	0xbdc04a55	-0.09389178
46	0x3d601dc0	0.05471587
47	0x3d0d821a	0.034547903
48	0xbe0dff8a	-0.13867012
49	0xbd7456e4	-0.059653178
50	0x3ded4fa8	0.11587459
51	0x3e922a36	0.2854783
52	0x3dba4643	0.090954326
53	0x3e80ca6f	0.25154445
54	0x3d30e087	0.043182876
55	0x3e13192d	0.14365073
56	0x3dc3f0a8	0.09567386
57	0x3e4d5ebc	0.2005567
58	0x3ec24ac1	0.37947658
59	0x3ea34f35	0.31896368
60	0xbd712146	-0.058869623
61	0x3d64cfb4	0.055862144
62	0x3e7b01a3	0.24512343
63	0xbd2ccee3	-0.04218949
64	0x3ea9fbd3	0.3319994
65	0xbe2dc78b	-0.16970651
66	0xbebfc37a	-0.37453824
67	0xbed1dbb5	-0.40987936
68	0xbe7c51ae	-0.24640533
69	0xbb912248	-0.0044291355
70	0xbd47617b	-0.04867695
71	0xbe494c93	-0.19658117
72	0xbe9167f8	-0.28399634
73	0xbe8d6d5d	-0.276225
74	0xbe96379b	-0.293393
75	0x3cf7c8ca	0.03024711
76	0x3e8969e9	0.26838616
77	0xbcc22540	-0.023699403
78	0x3dee3fe1	0.11633278
79	0xbdf69317	-0.12039774
80	0x3dec1c55	0.115288414
81	0x3d3d7474	0.046253636
82	0xbdc111b5	-0.094272055
83	0x3e07a149	0.13245119
84	0xbe609abd	-0.21934028
85	0x3ecef827	0.404237
86	0x3cb6c289	0.022309558
87	0xbe4dcedc	-0.20098442
88	0x3d69ee89	0.05711225
89	0xbe82fb76	-0.25582474
90	0x3ec0e2a0	0.376729
91	0x3dd8f568	0.105936825
92	0xbe232b07	-0.15934382
93	0xbeb022c5	-0.34401527
94	0xbe52f0b1	-0.20599629
95	0x3eb13079	0.34607294
96	0x3e6013a9	0.218825
97	0x3c88ac69	0.016683774
98	0xbe8a1534	-0.26969302
99	0xbe3142d1	-0.17310645
100	0x3e1aee7f	0.15130042
101	0x3c523951	0.012831048
102	0x3d8374ff	0.064187996
103	0x3e54f7df	0.2079768
104	0xbc521297	-0.012821815
105	0x3e2680ae	0.16260025
106	0x3e1663de	0.14686534
107	0xbcdd8d5d	-0.027044946
108	0x3e578194	0.21045524
109	0xbdab1818	-0.08354205
110	0x3e0b6bbd	0.13615318
111	0xbd4435d2	-0.04790289
112	0x3da88235	0.0822796
113	0x3e8cfdef	0.27537486
114	0xbc9a70a0	-0.018852532
115	0x3d831be1	0.06401802
116	0xbe514cc0	-0.20439434
117	0xbdd0e39b	-0.10199662
118	0x3da8438a	0.08216007
119	0x3e3513af	0.1768329
120	0x3dfc6b7b	0.12325188
121	0xbd129693	-0.03578813
122	0x3d3ba9de	0.045816295
123	0x3ddda75c	0.10822937
124	0x3e81472b	0.2524961
125	0x3e901680	0.28142166
126	0x3e33433c	0.17506117
127	0xbc81090d	-0.015751386
128	0x3ec05a9c	0.3756913
129	0x3e6cb7e6	0.23117027
130	0x3dda4fcc	0.10659751
131	0x3e212e07	0.15740214
132	0x3e9016f8	0.28142524
133	0x3c6bda8a	0.0143953655
134	0x3d7a9ab6	0.0611827
135	0x3e89790d	0.26850167
136	0x3de06926	0.109575555
137	0xbd7e8d67	-0.06214657
138	0xbe9c75ca	-0.30558616
139	0xbe6d8500	-0.23195267
140	0x3d61f513	0.05516536
141	0xbe76537f	-0.24055289
142	0xbeaa1bd0	-0.33224344
143	0xbe1ba896	-0.15201029
144	0xbe85a6fb	-0.26103958
145	0xbb0ff0b5	-0.002196354
146	0x3d5d931f	0.054095384
147	0xbd2a5134	-0.041581348
148	0x3e0d0b0c	0.13773745
149	0x3d9587c6	0.07301287

conv1.bias f4 [6]
0	0x3db4abfb	0.08821865
1	0x3dd9690e	0.10615741
2	0x3e3d88d1	0.18509223
3	0xbd54cfc1	-0.051955942
4	0xba47578e	-0.0007604294
5	0x3e3af331	0.18256833

conv2.weight f4 [16, 6, 5, 5]
0	0xbd804cee	-0.06264673
1	0x3d3efc2e	0.046627216
2	0x3dc2eb47	0.09517532
3	0xbd2eff5f	-0.04272401
4	0x3dc7d530	0.09757459
5	0x3b73892f	0.0037160625
6	0x3b10e936	0.002211166
7	0x3deccb28	0.115621865
8	0x3de865dc	0.11347553
9	0x3dcbd303	0.09952357
10	0x3c0c33dc	0.008557286
11	0x3dc5a0c6	0.09649806
12	0x3c2f1332	0.010685729
13	0x3d8375f2	0.06418981
14	0x3ccc32ea	0.024926621
15	0x3d32a066	0.04361
16	0x3ba9903b	0.0051746643
17	0x3c0b35ae	0.008496685
18	0xbdc7b385	-0.097510375
19	0xbd942ec2	-0.07235481
20	0xbdb11029	-0.086456604
21	0xbd6fc987	-0.0585418
22	0xbcdb2118	-0.026749179
23	0xbdfad25b	-0.12247153
24	0xbd9a8807	-0.075454764
25	0xbd8a63fd	-0.067573525
26	0x3d1dc5cc	0.038518712
27	0xbd6707b6	-0.056403838
28	0xbd6b216a	-0.057404913
29	0xbd20dd69	-0.039273653
30	0x3df11617	0.117717914
31	0x3d253453	0.040333103
32	0x3e0d5b24	0.13804299
33	0x3d5c7b40	0.053828478
34	0x3dcf6965	0.10127524
35	0x3e1ffcc1	0.15623762
36	0xbc1a6f1a	-0.009425903
37	0x3dac9096	0.08426015
38	0x3e0657c6	0.1311942
39	0x3dc4781a	0.0959322
40	0x3db6df40	0.089293
41	0xbdf1c671	-0.11805428
42	0xbe11b623	-0.14229636
43	0xbe053a1c	-0.13010448
44	0xbdf73fe7	-0.12072735
45	0xbdf304ea	-0.11866172
46	0xbc2e739a	-0.010647679
47	0xbe012984	-0.12613493
48	0xbde7f7b6	-0.11326544
49	0xbd963601	-0.07334519
50	0xbe0c009e	-0.1367211
51	0xbe37843e	-0.1792154
52	0xbe5cc791	-0.21560504
53	0xbd7fec53	-0.062481236
54	0xbc8bf293	-0.017083442
55	0xbde938d6	-0.11387794
56	0x3d3ef00f	0.046615656
57	0x3c771770	0.0150812715
58	0x3d82b10b	0.063814245
59	0x3bdc87bb	0.0067300475
60	0x3e3fa8e9	0.18716778
61	0x3e07c1ac	0.13257474
62	0x3e04dc7a	0.1297473
63	0x3e63d8da	0.22250691
64	0x3e7c85fc	0.24660486
65	0x3dab9d58	0.0837962
66	0x3e32e9dd	0.17472024
67	0x3dd49679	0.10380263
68	0x3e32e694	0.17470771
69	0x3e0ec538	0.1394242
70	0x3d875e6d	0.06609807
71	0xbe2b9d79	-0.1675929
72	0xbd826ff6	-0.06369011
73	0xbe10c6d9	-0.14138354
74	0xbe63a447	-0.22230636
75	0xbdc4d404	-0.09610751
76	0x3dc82091	0.097718365
77	0x3dc0b8e7	0.09410267
78	0xbd4ea470	-0.05044979
79	0xbd45c8d4	-0.048287228
80	0xbd96f198	-0.07370299
81	0xbd8b1e9e	-0.06792949
82	0xbdd39c4a	-0.10332544
83	0xbe02aef7	-0.12762056
84	0xbdbd4d32	-0.092432395
85	0xbd02eaa9	-0.03196207
86	0xbdc33e11	-0.095333226
87	0xbe1d297e	-0.1534786
88	0xbe533498	-0.20625532
89	0xbe16deb0	-0.14733386
90	0x3cb2c6f2	0.02182338
91	0xbddb7a70	-0.107167125
92	0xbe04fc0c	-0.12986773
93	0xbe414775	-0.18874915
94	0xbe3e7ee0	-0.18603086
95	0xbd2c8209	-0.0421162
96	0xbb01834d	-0.00197621
97	0xbae13f41	-0.0017184989
98	0xbd083fd6	-0.033264004
99	0x3d782189	0.060578857
100	0x3d57f87f	0.05272722
101	0x3d5da681	0.05411387
102	0x3df927dc	0.12165806
103	0x3d44e4c9	0.04806975
104	0x3d9057c2	0.070479885
105	0xbc96fc4a	-0.018430848
106	0x3c566132	0.013084697
107	0xbb6e0ed6	-0.003632476
108	0x3e00df17	0.12585102
109	0x3cd6dce1	0.02622837
110	0x3da55eca	0.0807472
111	0x3d8f07ed	0.069839336
112	0x3cf83d0c	0.030302547
113	0xbc2085c7	-0.00979752
114	0xbab22961	-0.0013592654
115	0x3d31d4bf	0.04341578
116	0x3d4b748e	0.049671702
117	0xbd835b99	-0.06413955
118	0xbd92bc88	-0.07164866
119	0xbd5ca4b1	-0.053868
120	0x3ccd2642	0.025042657
121	0xbdc24396	-0.09485547
122	0xbdc8cda3	-0.09804847
123	0xbdd9359a	-0.10605927
124	0xbd76e582	-0.06027747
125	0xbe0254f8	-0.12727726
126	0xbd58cef1	-0.05293173
127	0x3dcd4ad0	0.10024035
128	0x3dd3bc8e	0.10338698
129	0x3d75d1d7	0.060014572
130	0xbe079eef	-0.13244222
131	0xbe2d8a11	-0.169472
132	0x3cc12895	0.023578921
133	0xbd8ce9bb	-0.06880518
134	0x3cf84caf	0.030310003
135	0xbd46f998	-0.048577875
136	0x3da85072	0.08218469
137	0x3d18f1ee	0.037340097
138	0x3e01edce	0.12688372
139	0x3e58ca95	0.21171029
140	0x3e39bab3	0.18137626
141	0x3e2152d6	0.15754256
142	0x3e13a68f	0.14419006
143	0x3dd1e565	0.10248832
144	0x3e61cace	0.2205002
145	0x3b94a51e	0.004536285
146	0xbd60c4e6	-0.054875277
147	0xbe1325ec	-0.14369935
148	0xbde8e591	-0.11371911
149	0xbe0a5e2d	-0.13512488
150	0x3d50d06b	0.050980013
151	0x3d9bc8d2	0.07606663
152	0x3d2d493c	0.04230617
153	0xbc4214e2	-0.011845799
154	0xbd039293	-0.032122206
155	0xbca54c32	-0.020177934
156	0x3c85891e	0.016300734
157	0xbc22305c	-0.009899225
158	0xbd2c2c32	-0.042034335
159	0x3cbc2f69	0.022971826
160	0x3ce0f894	0.027462281
161	0x3d841007	0.064483695
162	0xbd181a4a	-0.037134446
163	0x3d76592c	0.060143635
164	0x3db0cfd4	0.0863339
165	0x3d2f815a	0.04284797
166	0xbc926685	-0.01787115
167	0x3d53d9e0	0.051721454
168	0x3cf5623d	0.02995407
169	0x3cb1f30a	0.021722335
170	0x3d775fd6	0.06039413
171	0xbc9650b1	-0.018349024
172	0x3c93942e	0.018014994
173	0xbb6a3aef	-0.0035740694
174	0xbda1df54	-0.079039246
175	0x3d1fc6c1	0.039007906
176	0x3d266b4e	0.040629677
177	0x3cdfe311	0.027329953
178	0xbd99e02e	-0.07513462
179	0xbdc3841a	-0.09546681
180	0x3d5e633f	0.054293867
181	0x3ce02838	0.027362928
182	0xbde5d8fb	-0.11223026
183	0xbd76f8b9	-0.060295794
184	0xbd502ab9	-0.050821993
185	0x3d95f9f1	0.07323063
186	0xbc9080ff	-0.017639635
187	0x3de9f49d	0.114236094
188	0x3daa0422	0.083015695
189	0x3d8356f0	0.064130664
190	0xbcf27570	-0.029597014
191	0x3db3e50a	0.0878392
192	0x3c2627ff	0.010141372
193	0x3d87da78	0.066334665
194	0x3ca1fe64	0.019774623
195	0x3c93abf0	0.018026322
196	0xbd77b823	-0.06047834
197	0xbdda8ae1	-0.1067102
198	0xbdc89808	-0.09794623
199	0x3c1a9247	0.009434289
200	0xbcd71e21	-0.026259484
201	0xbc844b3c	-0.016149156
202	0x3e070ab2	0.13187674
203	0x3c959669	0.018260198
204	0x3d584ade	0.052805774
205	0x3dd07cb6	0.10180037
206	0xbb900a78	-0.004395779
207	0x3dc77347	0.09738784
208	0x3cde60f3	0.027145838
209	0xbda36090	-0.07977402
210	0x3d5d79a2	0.054071076
211	0xbba54ffc	-0.0050449353
212	0x3d9b3eed	0.075803615
213	0x3e7492f8	0.23884189
214	0x3e40956e	0.18807003
215	0x3e2531fd	0.1613235
216	0x3e778042	0.2417002
217	0x3e69ee49	0.22844805
218	0x3e03db77	0.12876688
219	0x3e41dc46	0.18931684
220	0x3d82a0db	0.06378337
221	0x3e3df891	0.18551852
222	0x3e0fc39c	0.14039463
223	0xbc3705c5	-0.011170809
224	0xbd31bca8	-0.043392807
225	0x3d33b004	0.043869033
226	0xbdd87833	-0.10569801
227	0xbd99390e	-0.074815854
228	0xbe11e8bb	-0.14248936
229	0xbbe12c8e	-0.0068717664
230	0xbda08389	-0.07837588
231	0xbdb3e544	-0.08783963
232	0xbe291d9d	-0.16515203
233	0xbe071bac	-0.1319415
234	0xbd668fb6	-0.056289397
235	0xbe636ab2	-0.2220867
236	0xbe87962b	-0.26481757
237	0xbe8fd399	-0.28091124
238	0xbe0204e3	-0.12697177
239	0xbdbc8d73	-0.09206667
240	0xbe84c5f2	-0.2593227
241	0xbe64c73e	-0.2234163
242	0xbdea130c	-0.11429414
243	0xbda415e1	-0.080119856
244	0xbe225ffa	-0.15856925
245	0xbe0a3c28	-0.1349951
246	0xbda32d62	-0.079676405
247	0xbe07cb88	-0.13261235
248	0xbdbcb276	-0.09213726
249	0xbc015232	-0.007893132
250	0xbd190ff2	-0.037368722
251	0x3ce3f09b	0.02782469
252	0x3d9af97f	0.07567119
253	0x385be95f	5.2431013e-05
254	0x3d2222cb	0.039583962
255	0xbd0d0b78	-0.034434766

conv2.bias f4 [16]
0	0xbc3da2f5	-0.0115744965
1	0x3cd80149	0.0263678
2	0x3d5a1855	0.05324586
3	0x3d0de2da	0.03464017
4	0xbde740f5	-0.112916864
5	0xbd3781fc	-0.044801697
6	0x3e0c3025	0.1369024
7	0xbcaf1446	-0.021371972
8	0x3d5aaf48	0.053389817
9	0xbd84a7e3	-0.06477334
10	0xbd8cbfa2	-0.068724886
11	0x3d977519	0.073953815
12	0xbd287534	-0.0411274
13	0xbd2c7a8d	-0.04210906
14	0x3c1c77de	0.009550063
15	0xbda1d23f	-0.079014294

fc1.weight f4 [120, 400]
0	0x3d3ee536	0.04660531
1	0xbcf96fef	-0.030448882
2	0x3d849c96	0.06475179
3	0x3e05f348	0.13081086
4	0x3e1ca802	0.15298465
5	0xbd873bf6	-0.066032335
6	0x3c7eee2d	0.015559715
7	0xbab076b3	-0.001346311
8	0x3dcbc6ce	0.09950028
9	0x3dda12c1	0.10648108
10	0x3c2c8b26	0.010531222
11	0xbce5e2e3	-0.02806229
12	0x3c94247d	0.018083805
13	0x3d4363b4	0.047702506
14	0xbd641ece	-0.05569344
15	0x3c2a93c4	0.010411207
16	0x3ced38c2	0.028957728
17	0x3d47ba5d	0.048761714
18	0xbd8e5793	-0.06950297
19	0xbcadd934	-0.021221735
20	0x3ca02797	0.019550128
21	0x3ceb0496	0.02868871
22	0x3d0199b5	0.031640727
23	0x3d8c066b	0.06837162
24	0x3cd53b0c	0.026029132
25	0x3bff8dd5	0.00779889
26	0x3d99cb08	0.07509428
27	0x3d390ddb	0.04517923
28	0x3d4fdce7	0.05074778
29	0x3db09ca7	0.08623629
30	0xbba37057	-0.004987757
31	0x3cf828d9	0.030292915
32	0xbcd09ff2	-0.025466893
33	0x3dbf40d9	0.093385406
34	0xbc478c02	-0.012179377
35	0xbd3d1614	-0.046163633
36	0x3b45361b	0.0030092064
37	0x3cb44d17	0.022009416
38	0x3ce89423	0.02839095
39	0xbc08b7b4	-0.0083445795
40	0x3d7476ca	0.0596836
41	0x3c91c89b	0.017795851
42	0x3cefe33e	0.029283162
43	0xbbc591e3	-0.006029354
44	0x39f7ad64	0.00047240697
45	0x3c4b5f9f	0.012412935
46	0x3c968103	0.018372064
47	0xbcfc5263	-0.030801004
48	0x3cbf63c8	0.02336301
49	0x3d697836	0.056999408
50	0x3c5ab082	0.013347747
51	0x3d129948	0.03579071
52	0xbbbe304a	-0.0058040963
53	0xbc40f93a	-0.01177817
54	0x3d443313	0.04790027
55	0x3d3bfe59	0.04589686
56	0x3d8a91e8	0.06766111
57	0xbc6298d2	-0.0138303805
58	0x3c59ec9f	0.013301044
59	0x3e0d684a	0.13809314
60	0x3d57f274	0.052721456
61	0x3cd608eb	0.0261273
62	0xbcaffc03	-0.021482473
63	0x3c7014d5	0.014653404
64	0x3c780289	0.015137323
65	0x3cc7f2b4	0.024407722
66	0x3db139c0	0.08653593
67	0x3c1594be	0.009129701
68	0x3c84726e	0.016167846
69	0xbd9eefc5	-0.07760576
70	0x3c72fe63	0.014831158
71	0x3d5662cb	0.05234031
72	0x3d0b5787	0.03401902
73	0x3d9d453a	0.076792195
74	0x3c64d238	0.013966136
75	0x3d9e9709	0.077436514
76	0x3a40ba9b	0.0007352025
77	0x3dcbbb6f	0.099478595
78	0x3d7931be	0.060838453
79	0xbc091acd	-0.008368206
80	0x3c209274	0.009800542
81	0x3d2e6017	0.042572107
82	0x3dad44cd	0.08460388
83	0xbb651f03	-0.0034961111
84	0xbd1a16bd	-0.03761934
85	0xbcc5783d	-0.024105186
86	0xbb3595bf	-0.0027707664
87	0x3d4111f5	0.047136266
88	0x3d2fe7c1	0.042945627
89	0xbd1fcb6d	-0.03901236
90	0xbca45d7c	-0.020064108
91	0xbd44793c	-0.04796718
92	0x3cb12329	0.021623211
93	0xbbebd9d2	-0.007197597
94	0x3d411f54	0.047149017
95	0x3cbaaf8c	0.022788785
96	0x3d6fa55f	0.05850732
97	0xbc6395ae	-0.013890667
98	0x3d57713f	0.052598234
99	0x3cef31da	0.029198576
100	0xbbe4e6d6	-0.0069855256
101	0xbd88e830	-0.06684911
102	0x3d851934	0.06498948
103	0x3cb9297d	0.022602791
104	0x3d04276d	0.03226416
105	0xbbbfcb5d	-0.0058531
106	0xbd422b9b	-0.047404867
107	0x3cac4a19	0.021031426
108	0x3d5f20ec	0.054474756
109	0x3d0f85c8	0.035039693
110	0x3d0c22f6	0.03421303
111	0x3c597593	0.013272661
112	0x3d547c07	0.051876094
113	0x3c4f0052	0.012634354
114	0x3c0bafa5	0.008525764
115	0xbbd2ab29	-0.0064290953
116	0x3da96f92	0.082732335
117	0x3d5290d5	0.051407654
118	0x3d037224	0.032091275
119	0x3d0a910f	0.033829745
120	0x3d2e928c	0.042620227
121	0xbd122a1d	-0.035684694
122	0x3c76afda	0.015056575
123	0x3c11f24a	0.008907864
124	0xbd00e1e6	-0.031465434
125	0xbc8ca2ca	-0.017167468
126	0x3c127486	0.008938914
127	0x3c99802a	0.018737871
128	0xbd9563f4	-0.07294455
129	0x3d55600b	0.052093547
130	0x3caa1c88	0.020765558
131	0x3ccf7b76	0.025327425
132	0xbd67c9ea	-0.056589045
133	0xbd53ca16	-0.051706396
134	0x3d1abdd2	0.037778683
135	0xbca1108e	-0.019661214
136	0x3c86c246	0.016450059
137	0xbbf19ac5	-0.0073731863
138	0x3d955d75	0.07293216
139	0x3da0ba56	0.07848041
140	0x3d69aaa3	0.057047497
141	0x3c60eb9c	0.013728049
142	0x3da1f0b1	0.07907236
143	0x3d2b4ccd	0.04182129
144	0xbd5ef085	-0.054428596
145	0x3c8d9f71	0.017287942
146	0x3cd19982	0.025585894
147	0xbb50d09f	-0.003186263
148	0xbc9c48b5	-0.019077638
149	0xbcf5e787	-0.030017627
150	0x3d03f286	0.03221371
151	0xbca09e57	-0.019606752
152	0x3de72f2b	0.112882935
153	0x3dc0b676	0.09409802
154	0x3e12ac51	0.14323546
155	0xbd55afdf	-0.052169677
156	0x3bd92057	0.0066261697
157	0xbd819874	-0.06327906
158	0x3cc7458b	0.024325153
159	0x3e49fecb	0.19726102
160	0x3d6623f2	0.056186624
161	0x3d9e6745	0.07734541
162	0xbd92ef96	-0.07174604
163	0x3d7f9398	0.062396616
164	0x3d1b2ff8	0.037887543
165	0x3dc27ddd	0.09496663
166	0x3d1d4d7e	0.03840398
167	0x3c816b8c	0.015798353
168	0x3caba1e8	0.020951226
169	0xbd5bc98a	-0.053659
170	0xbc531c62	-0.012885185
171	0xbd4e9377	-0.050433602
172	0x3bce3737	0.006293203
173	0xbd0cb9b2	-0.03435678
174	0x3bba6c30	0.0056891665
175	0x3d9b92b7	0.07596343
176	0x3d8cb007	0.06869512
177	0x3d17d9c1	0.0370729
178	0xbc054a7a	-0.008135432
179	0xbdc0016c	-0.09375271
180	0xbc064763	-0.008195731
181	0xbd13db7b	-0.036097985
182	0x3d2c1ff8	0.042022675
183	0xbc76332f	-0.015026852
184	0xbd9c6f9c	-0.07638475
185	0xbd6eaa6e	-0.058268003
186	0x3d835059	0.064118095
187	0x3ce4b14e	0.027916577
188	0xbd8c6b90	-0.068564534
189	0x3d8ec717	0.06971567
190	0xbdaf46f2	-0.085584536
191	0xbcee6864	-0.029102512
192	0xbc902548	-0.017595902
193	0xbb237ed4	-0.0024947422
194	0x3d69ded3	0.057097267
195	0xbc9e152a	-0.019297201
196	0x3c78fa81	0.015196444
197	0x3d9737c9	0.07383687
198	0x3d349b7a	0.044093587
199	0xbd4b01ac	-0.04956214
200	0xbb57f38d	-0.0032951564
201	0x3d60008f	0.054688033
202	0x3ca3780d	0.019954706
203	0xbda64f76	-0.08120625
204	0xbdae7088	-0.085175574
205	0xbcdfe219	-0.027329491
206	0x3d47dfd8	0.04879746
207	0x3d8318db	0.06401225
208	0xbd9f7993	-0.0778686
209	0x3c9c0568	0.019045547
210	0xbc9c9714	-0.019115008
211	0x3ce58ff6	0.028022747
212	0xbafa1918	-0.0019080965
213	0x3da5e33e	0.08099984
214	0x3e208614	0.15676147
215	0xbdc94be0	-0.09828925
216	0x3c82d42b	0.01597031
217	0xbcea3406	-0.02858926
218	0xbc53e320	-0.012932569
219	0xbda91e23	-0.08257701
220	0x3b8eaff5	0.004354472
221	0x3dcf6179	0.10126013
222	0x3d99c9a1	0.07509161
223	0xbc3cd7c8	-0.011526056
224	0xbe48a3c5	-0.19593723
225	0xbcf11b2b	-0.0294319
226	0x3c87095a	0.016483951
227	0x3d9cd1bc	0.07657191
228	0x3d643d09	0.05572227
229	0x3d3719da	0.04470239
230	0xbd7012a7	-0.05861154
231	0x3d8446bf	0.06458806
232	0x3d2d1ed1	0.042265717
233	0x3d23d1fe	0.039995186
234	0xbc75b326	-0.014996326
235	0xbdbbc2f9	-0.091680475
236	0xbd5ee42c	-0.05441682
237	0x3da4d039	0.08047528
238	0x3d00868b	0.03137831
239	0xbd49dfa3	-0.049285542
240	0xbdbc9527	-0.09208136
241	0xbd6eabea	-0.05826942
242	0xbd331e32	-0.04372997
243	0xbc85b364	-0.016320892
244	0xbdb77580	-0.08957958
245	0xbd7de4b2	-0.06198568
246	0x3d5a99e4	0.053369418
247	0x3c5c02ba	0.013428384
248	0x3da1d74f	0.07902395
249	0xbd12f612	-0.035879202
250	0xbd1702b9	-0.03686783
251	0xbd27194f	-0.04079562
252	0xbd17c505	-0.037053127
253	0xbd4ea3c4	-0.050449148
254	0x3d65aa43	0.056070577
255	0x3bd956b0	0.0066326484

fc1.bias f4 [120]
0	0x3d75095a	0.05982337
1	0x3cea63e5	0.028612087
2	0x3d5b9a07	0.05361369
3	0x3cdda92f	0.027058212
4	0x3d7f4a86	0.06232693
5	0xbce041e7	-0.027375175
6	0x3cc2ce8c	0.02378013
7	0xbb9e9a1d	-0.004840149
8	0x3d09038b	0.033450644
9	0x3c62c696	0.013841292
10	0x3d1d55fd	0.038412083
11	0xbd058cd1	-0.032604996
12	0x3a8387af	0.0010034944
13	0xbd254cf2	-0.040356584
14	0xba2b1d75	-0.0006527522
15	0x3c757dce	0.014983607
16	0xbcea38bc	-0.028591506
17	0x3d04c8c4	0.032418028
18	0xbd7d9060	-0.061905265
19	0xbc6075d5	-0.013699968
20	0x3c0b9e41	0.008521617
21	0x3ce39861	0.02778262
22	0x3cb77988	0.022396818
23	0x3d97d30f	0.07413303
24	0xbcd9eee0	-0.026603162
25	0xbcd6bd17	-0.026213212
26	0xbd87593a	-0.066088155
27	0xbaecd6a7	-0.0018069342
28	0x3ce0cdbb	0.02744185
29	0x3bedd152	0.007257619
30	0xbc7422a4	-0.014900837
31	0xbd0c8d6b	-0.034314554
32	0xbb16dd90	-0.0023020245
33	0xbcf156dd	-0.029460365
34	0xbc505941	-0.012716592
35	0xbcf55330	-0.029946893
36	0x3d929d61	0.07158924
37	0x3d3313ed	0.043720175
38	0x3d5c3a75	0.053766686
39	0x3d892e48	0.066982806
40	0xbc6d0e3d	-0.014468727
41	0xbd20a531	-0.03922004
42	0xbca4c7fc	-0.020114891
43	0x3c027f1e	0.007964877
44	0xbd0f228b	-0.034945052
45	0x3d42ad91	0.047528807
46	0x3d447e78	0.047972172
47	0xbcf45dfb	-0.02982997
48	0x3d21ff0b	0.03954987
49	0x3d2d5ab6	0.042322837
50	0x3a7c5f53	0.00096272415
51	0xbd0469e1	-0.032327536
52	0xbba20a76	-0.0049450947
53	0x3cf09209	0.02936651
54	0x3c42b57a	0.011884088
55	0xbd6318a1	-0.05544341
56	0x3cfd02ea	0.030885179
57	0x3b9cdbaa	0.004786928
58	0x3b8454d1	0.004038431
59	0x3d10e0fe	0.03537082
60	0x3c1b5ddc	0.009482827
61	0xbca3f17e	-0.020012613
62	0x3cc5db3b	0.024152389
63	0xbd08b9e9	-0.033380423
64	0x3d1025df	0.035192367
65	0x3c4f2fa4	0.012645636
66	0xbd450fea	-0.04811088
67	0x3ce3b6a5	0.027797053
68	0x39ecfd9d	0.00045202384
69	0xbd163edf	-0.036681052
70	0x3d642db4	0.05570765
71	0x3cd2b13c	0.025719278
72	0xbd79078a	-0.060798205
73	0xbd4766e3	-0.048682105
74	0x3bd4b630	0.006491445
75	0x3ca5f018	0.020256087
76	0xbd375441	-0.044758085
77	0xbb746a6a	-0.0037294873
78	0xbd1db0f3	-0.03849883
79	0x3d510699	0.051031683
80	0x3cfde3f4	0.030992486
81	0x3c410711	0.01178147
82	0xbd46105b	-0.04835544
83	0xbcec5231	-0.028847786
84	0x3d1d4395	0.03839453
85	0x3cc67a68	0.02422829
86	0xbce21ccd	-0.027601624
87	0x3d5c3995	0.053765852
88	0x3d2bc5d0	0.041936696
89	0x3c04ae4e	0.008098198
90	0xbc736ed2	-0.014857965
91	0x3bd382e2	0.0064548114
92	0x3ca619a8	0.020275906
93	0x3ca1ca02	0.019749645
94	0xbd0bfd74	-0.03417726
95	0x3c405806	0.011739736
96	0x3cc7273d	0.024310702
97	0xbc435c48	-0.011923857
98	0xbd85c8d4	-0.065324455
99	0x3bcda39c	0.0062756073
100	0x3d4a444f	0.04938155
101	0x3d0d30f4	0.034470513
102	0xbd0ce847	-0.034401204
103	0xbd2a9ff0	-0.041656435
104	0x3d3cc66c	0.046087667
105	0x3d5e06bf	0.054205652
106	0x3cc42e3f	0.023947833
107	0x3ce12ed7	0.027488155
108	0xbc326e4d	-0.010890556
109	0xbbc7bf76	-0.006095822
110	0x3d490173	0.049073648
111	0x3d826faa	0.063689545
112	0xbc10eeab	-0.008845965
113	0x3ad0c384	0.0015927409
114	0x3c599e72	0.013282405
115	0x3cdb40b2	0.026764248
116	0x3af9b81a	0.0019052059
117	0xbd2df7a0	-0.04247248
118	0x3d05b17e	0.032639973
119	0x3d52ba3f	0.05144715

fc2.weight f4 [84, 120]
0	0xbc9f235b	-0.019426038
1	0x3d840b80	0.06447506
2	0x3cd72cf6	0.026266556
3	0x38e33e7d	0.00010835843
4	0xbd078b82	-0.03309203
5	0xbd918fce	-0.07107507
6	0xbb1333ef	-0.0022461375
7	0xbc7ebec0	-0.015548408
8	0x3c7f491d	0.015581396
9	0xbd15a987	-0.036538627
10	0xbcdc9080	-0.026924372
11	0x3d0e8439	0.034794066
12	0x3d9a0e50	0.07522261
13	0x3d42624e	0.047457032
14	0xbd3ae712	-0.045630522
15	0x3db3d6d2	0.08781208
16	0x3d9449b1	0.07240618
17	0xbd993101	-0.0748005
18	0x3c94ce08	0.01816465
19	0xbca24fec	-0.0198135
20	0x3db92260	0.0903976
21	0x3dc09fb1	0.09405459
22	0x3d17e08e	0.037079386
23	0x3e3e295e	0.18570468
24	0x3d88356f	0.06650817
25	0xbd5630c7	-0.05229261
26	0xbd9dddc5	-0.07708315
27	0xbdcfa10b	-0.101381384
28	0x3db9eeb7	0.09078734
29	0xbd9a6ffc	-0.075408906
30	0x3d88c5d9	0.066783614
31	0x3dd2f4c3	0.10300591
32	0xbe05411f	-0.13013123
33	0x3d95e225	0.07318524
34	0xbc989ee7	-0.018630458
35	0x3d361b33	0.044459533
36	0x3d61fe7c	0.055174336
37	0x3d2caa72	0.042154737
38	0x3dd14f8f	0.10220253
39	0xbc717d65	-0.014739369
40	0xbd9d322c	-0.07675585
41	0x3b9fff3d	0.0048827217
42	0x3c0c65a9	0.00856916
43	0xbdffa164	-0.12481955
44	0x3d0bd44c	0.03413801
45	0x3cdd534a	0.027017254
46	0xbd5678e6	-0.05236139
47	0xbdc606f3	-0.09669294
48	0xbd94a7e8	-0.07258588
49	0xba5b17ea	-0.00083577505
50	0x3d9aecf3	0.07564726
51	0xbc884d6d	-0.016638482
52	0xbcb934fd	-0.022608275
53	0x3d815972	0.063158885
54	0x3cd4099e	0.025883492
55	0x3c8526a7	0.016253782
56	0xbd18b437	-0.03728124
57	0x3dd31ab9	0.10307831
58	0x3d63a329	0.055575524
59	0xbdac0def	-0.08401095
60	0xbd70b93e	-0.05877041
61	0x3dd0548e	0.101723775
62	0x3c8aad34	0.016928293
63	0x3de34180	0.110964775
64	0xbca18a69	-0.01971932
65	0xbc9b20e7	-0.018936587
66	0xbd6c32b0	-0.057665527
67	0x3d846381	0.06464291
68	0x3da32970	0.07966888
69	0xbd8e6696	-0.069531605
70	0xbcddf8c5	-0.027096162
71	0x3d5b4f6d	0.053542543
72	0x3d904cfa	0.07045932
73	0xbeb0e7c8	-0.34551835
74	0x3db953d5	0.09049193
75	0xbd35aadc	-0.044352397
76	0xbdbabee1	-0.091184385
77	0x3e3481f2	0.17627695
78	0xbc058264	-0.008148763
79	0x3e0b84ba	0.1362485
80	0x3d41d48e	0.04732185
81	0x3d00d022	0.03144849
82	0xbdb3f2e6	-0.087865636
83	0x3d060aa7	0.032725003
84	0x3cbbdc24	0.02293212
85	0x3c981ef1	0.018569442
86	0xbe10a466	-0.14125213
87	0xbd23701d	-0.03990184
88	0x3e1e7a85	0.15476425
89	0xbe20e256	-0.1571134
90	0xbcdac57d	-0.026705498
91	0x3db239b1	0.0870241
92	0xbd3b8a26	-0.045786045
93	0xbda59060	-0.08084178
94	0xbd2bf29a	-0.04197941
95	0x3e1436d7	0.14474045
96	0xbde63bdd	-0.11241887
97	0x3db08e1a	0.08620854
98	0x3db94092	0.09045519
99	0xbd6cf388	-0.057849437
100	0xbdc6d92a	-0.097093895
101	0x3c39b08d	0.011333597
102	0x3d8de5d4	0.06928602
103	0xbcf7752f	-0.030207245
104	0x3d18158d	0.037129927
105	0x3d80f5b0	0.06296861
106	0x3c88ee4e	0.016715195
107	0xbdae8c3e	-0.08522843
108	0x3d16f154	0.036851242
109	0x3d6cd171	0.057816926
110	0x3d289c1b	0.0411645
111	0x3d3570cb	0.04429702
112	0xbc18a65e	-0.009317009
113	0x3da565ca	0.08076055
114	0xbd3fcac3	-0.046824228
115	0xbd458b8b	-0.04822878
116	0x3cac42eb	0.021028003
117	0xbc052de5	-0.008128618
118	0xbe0f4613	-0.13991575
119	0x3df13f0b	0.117796026
120	0x3dac0171	0.083987124
121	0x3cf5adab	0.029990038
122	0xbd0f29d4	-0.034952
123	0xbd7ed716	-0.06221684
124	0x3dd68853	0.104752205
125	0xbc671757	-0.014104686
126	0x3d299eb1	0.041411106
127	0x3dc67f71	0.09692276
128	0xbdacafa7	-0.084319405
129	0xbca3ac3a	-0.019979585
130	0xbbd2dd48	-0.00643507
131	0x3ce557f4	0.02799604
132	0xbd38807d	-0.04504441
133	0x3cdb8fde	0.026802
134	0x3c54aae3	0.012980196
135	0x3a8baefe	0.001065701
136	0x3d2ba0ee	0.04190152
137	0xbdd65e0e	-0.10467158
138	0x3dfbc084	0.12292579
139	0x3cc81be6	0.024427366
140	0xbd87a4d8	-0.06623238
141	0xbca0d68f	-0.01963356
142	0xbda0c90d	-0.078508474
143	0xbe2b3cba	-0.16722384
144	0x3d4f8be0	0.050670505
145	0xbd56aa85	-0.052408714
146	0x3e0bf9dc	0.13669533
147	0x3d538a1f	0.051645394
148	0xbdb2956b	-0.087199055
149	0x3e03f1b2	0.12885168
150	0x3cf78855	0.030216375
151	0xbc61e262	-0.013786884
152	0x3e00d84e	0.12582514
153	0xbd623785	-0.05522873
154	0xbd5cdb83	-0.05392028
155	0x3cf08c59	0.029363798
156	0xbcce624c	-0.025193356
157	0xbd61dea0	-0.055143952
158	0x3d9c01f2	0.076175585
159	0x3d6f4006	0.058410667
160	0x3d58dfac	0.052947685
161	0xbc5aec16	-0.013361951
162	0x3cc61bb8	0.02418314
163	0x3c000a63	0.007814976
164	0x3da0417e	0.07824992
165	0x3c2d60af	0.010582133
166	0xbd643e37	-0.055723395
167	0xbd2a6810	-0.041603148
168	0xbbe748bc	-0.007058231
169	0x3dd13b4e	0.102163896
170	0x3d200caa	0.039074577
171	0xbd6df6b3	-0.0580966
172	0xbd6d1bf4	-0.057887986
173	0xbd2b392b	-0.041802566
174	0xbccb18b1	-0.024792047
175	0xbda54489	-0.08069713
176	0xbd0838aa	-0.033257164
177	0x3baa615d	0.005199595
178	0xbd832bb7	-0.06404822
179	0xbc551e34	-0.013007689
180	0x3d93f588	0.07224566
181	0xbde6a95c	-0.112627715
182	0x3cd194ff	0.025583742
183	0xbcfd8665	-0.030947873
184	0x3cf652c5	0.030068764
185	0xbdb62b0f	-0.088949315
186	0x3d1ab0a9	0.037766133
187	0x3d66f7c8	0.056388646
188	0x3c9fb341	0.019494655
189	0xbdc3847a	-0.09546752
190	0xbca8dec3	-0.020614034
191	0x3cda9f93	0.026687419
192	0x3d6ce6d6	0.05783733
193	0x3d5f370b	0.054495852
194	0x3d2fe51d	0.04294311
195	0x3da8197d	0.082079865
196	0x3c3e6c6f	0.011622532
197	0xbe082083	-0.13293652
198	0xbd8cb293	-0.06869998
199	0xbdec9586	-0.11551957
200	0xbda08703	-0.078382514
201	0xbdc4d937	-0.09611743
202	0x3e0a0e80	0.13482094
203	0x3e0cd6e0	0.13753843
204	0x3d95f07a	0.07321258
205	0x3dbb3012	0.09140028
206	0x3de6a05b	0.11261054
207	0x3d83620a	0.06415184
208	0xbe0b27ab	-0.13589351
209	0x3c829e7b	0.01594471
210	0xbda75095	-0.08169667
211	0x3d52b0a0	0.051437974
212	0x3d5201f2	0.051271386
213	0x3d75aad7	0.05997738
214	0xbd90a38f	-0.07062446
215	0xbddf9e63	-0.10918882
216	0x3dc8b35e	0.097998366
217	0x3d9829cc	0.07429847
218	0x3d6bc6ef	0.057562765
219	0xbd0029dd	-0.031289924
220	0xbd9a05cb	-0.07520636
221	0xbdbec034	-0.093140036
222	0x3c4f9384	0.012669448
223	0x3cf44925	0.029820034
224	0x3db4e101	0.088319786
225	0xbe0567d7	-0.13027893
226	0x3df21078	0.118195474
227	0xbd868b32	-0.06569518
228	0xbd2a3cb9	-0.041561816
229	0x3d885a7e	0.06657885
230	0x3c196690	0.009362832
231	0x3c269346	0.010166949
232	0x3d2f5c09	0.04281238
233	0x3d19748b	0.03746466
234	0x3de68c49	0.11257226
235	0x3cde21ca	0.027115721
236	0xbd834c52	-0.06411041
237	0x3d377863	0.044792544
238	0x3e0e9ae6	0.13926277
239	0xbdd74e06	-0.10512929
240	0x3dc37b32	0.09544982
241	0xbdc5e448	-0.09662682
242	0x3d385089	0.04499868
243	0x3d47c6be	0.04877352
244	0x3db54029	0.08850128
245	0xbd8b3963	-0.06798055
246	0x3d91ed45	0.07125334
247	0x3d22cc9e	0.03974592
248	0x3a911907	0.0011070081
249	0xbda690ac	-0.08133063
250	0x3cb48989	0.022038238
251	0xbd94d821	-0.07267786
252	0x3c9a0fd6	0.01880638
253	0x3d95e82d	0.07319675
254	0xbd823efd	-0.0635967
255	0xbb3b4458	-0.0028574672

fc2.bias f4 [84]
0	0x3df1dafe	0.118093476
1	0x3d5bd6a0	0.05367148
2	0xbc32deb1	-0.010917352
3	0xbd9c7864	-0.0764015
4	0xbc42ad84	-0.01188219
5	0x3c889d0b	0.016676446
6	0x3d2b5cf1	0.041836683
7	0xbdc2cf8f	-0.09512245
8	0x3cf1b2c2	0.029504184
9	0x3c11a307	0.008888966
10	0x3d87a95a	0.06624098
11	0x3d696f94	0.056991175
12	0xbcf16c85	-0.029470691
13	0xbcabe03a	-0.020980943
14	0xbd4c5680	-0.04988718
15	0x3d9bc56f	0.07606017
16	0xbd8aa41b	-0.06769582
17	0x3db25593	0.08707728
18	0x3d6574e8	0.056019694
19	0x3d031799	0.032004926
20	0x3d8fc477	0.070198946
21	0xbbe5e4a0	-0.0070157796
22	0xbcb6f8d9	-0.022335457
23	0x3d8cfb49	0.06883866
24	0x3c82e0ba	0.015976299
25	0x3d9dba6f	0.07701575
26	0x3c6f7005	0.01461411
27	0xbd58ca53	-0.052927326
28	0xbd7e380d	-0.062065173
29	0x3c351a9f	0.01105371
30	0xbdb717cc	-0.08940086
31	0x3dc21658	0.09476918
32	0x3dc559db	0.09636279
33	0x3d99dda0	0.07512975
34	0x3a23e491	0.00062520156
35	0xbcb6f6ca	-0.022334475
36	0xbda9d913	-0.08293357
37	0xbc8d5faf	-0.01725754
38	0x3d845b1b	0.064626895
39	0xbc99f2c6	-0.018792521
40	0xbd492968	-0.049111754
41	0xbd17cc63	-0.037060153
42	0x3d935b98	0.071952045
43	0x3dd0f79f	0.1020348
44	0x3cfb76a0	0.030696213
45	0xbd455690	-0.048178256
46	0x3d333d5a	0.04375968
47	0x3cd34051	0.025787504
48	0xbabb0643	-0.0014268834
49	0x3da88f7f	0.08230495
50	0xbd5e9b75	-0.054347474
51	0x3dd0cccd	0.10195313
52	0x3dcc4e65	0.0997589
53	0xbc8ef335	-0.017449955
54	0xba6f1f92	-0.0009121831
55	0xbd2fbcd6	-0.042904697
56	0xbcdfff34	-0.02734337
57	0xbd9f586a	-0.077805355
58	0x3beaa8f6	0.007161255
59	0xbd99fb52	-0.07518639
60	0x3d7f3da3	0.06231464
61	0x3ceb5338	0.028726205
62	0xbd4018ff	-0.046898838
63	0xbcafb137	-0.021446807
64	0xbc981715	-0.018565694
65	0xbd8c026f	-0.06836402
66	0xbc9a9d34	-0.018873788
67	0xbd95072e	-0.0727676
68	0x3d84f5a4	0.06492165
69	0xbd0e9f87	-0.034820106
70	0xb9c27772	-0.00037091557
71	0x3dbcd056	0.092194244
72	0x3d92753a	0.071512654
73	0xbd5ad947	-0.053429868
74	0xbda5f14a	-0.08102663
75	0x3d5a688d	0.053322364
76	0xbcb1b5a2	-0.021693055
77	0xbd8fac83	-0.07015326
78	0x3d8329f1	0.06404484
79	0xbda71571	-0.081583865
80	0x3dba4f7d	0.090971924
81	0x3d3fbaf3	0.046809148
82	0xbd96e54c	-0.07367954
83	0x3d3cc142	0.046082743

fc3.weight f4 [10, 84]
0	0x3c831f0e	0.016006019
1	0x3dae5f4a	0.08514269
2	0x3dd3daeb	0.1034449
3	0xbd9c6f89	-0.07638461
4	0x3deb53db	0.114906035
5	0x3db367b5	0.08760015
6	0x3d390173	0.045167398
7	0x3ccb7ecd	0.024840737
8	0xbcaf682b	-0.021411976
9	0xbd56550f	-0.052327212
10	0xbe096b81	-0.13419916
11	0xbd915803	-0.07096865
12	0xbe1271a9	-0.1430117
13	0xbd834707	-0.06410032
14	0xbde34a51	-0.11098159
15	0x3d94c053	0.072632454
16	0xbd107858	-0.03527102
17	0x3df7b613	0.12095275
18	0x3d6264da	0.05527196
19	0x3de15bb4	0.11003819
20	0x3d8c8f79	0.06863303
21	0x3de49aca	0.11162336
22	0xbd558a70	-0.052133977
23	0xbdc6dbdf	-0.09709906
24	0x3cc36312	0.023850951
25	0x3d8a5317	0.067541294
26	0xbd8734f6	-0.06601898
27	0x3d97382a	0.07383759
28	0x3d5cdbdc	0.05392061
29	0xbe16361d	-0.1466908
30	0xbda080b5	-0.07837049
31	0xbd3cf75b	-0.046134334
32	0xbe1dc445	-0.15406902
33	0x3da200a5	0.07910279
34	0x3e2ed358	0.17072809
35	0x3d807dcc	0.06273994
36	0x3d5b360c	0.05351834
37	0x3deeebe7	0.116660886
38	0x3daae1a1	0.083438165
39	0xbdaa9ed0	-0.08331072
40	0xbdd77ee9	-0.10522253
41	0xbd977342	-0.073950306
42	0x3ccafa91	0.024777682
43	0xbdfe2ff4	-0.1241149
44	0x3dad2310	0.08453953
45	0x3d66af23	0.056319367
46	0xbdf177f1	-0.11790455
47	0xbcf7b34c	-0.030236863
48	0xbe3a0d8b	-0.18169229
49	0x3de5d1e0	0.11221671
50	0xbdcc88c0	-0.099870205
51	0x3db0fedb	0.0864236
52	0xbdd1a92b	-0.10237344
53	0xb9994634	-0.0002923474
54	0xbe117e7a	-0.14208403
55	0xbb43caba	-0.0029875473
56	0xbd641932	-0.05568809
57	0x3d079c68	0.033108145
58	0x3da97acb	0.08275374
59	0xbc907732	-0.017634962
60	0xbd011cf2	-0.031521745
61	0x3c27809e	0.010223536
62	0x3d96cfc1	0.07363845
63	0x3d29a632	0.04141826
64	0xbdc92156	-0.098208115
65	0x3d8468d6	0.06465308
66	0xbd87d804	-0.066329986
67	0xbd79b34d	-0.06096201
68	0xbdcfd134	-0.10147324
69	0xbd44a71d	-0.048010934
70	0x3dc6c040	0.097046375
71	0xbddad4b5	-0.10685102
72	0x3d491ed7	0.049101677
73	0x3cbb0651	0.02283016
74	0xbda5bc10	-0.08092511
75	0xbd9f488d	-0.0777751
76	0xbdd5e3cf	-0.10443842
77	0x3bf7f604	0.007567169
78	0xba84bff4	-0.0010128007
79	0xbd618668	-0.05505982
80	0xbe1d5df9	-0.15367879
81	0x3d5cc411	0.05389792
82	0xbde1c0ce	-0.11023103
83	0xbca63aa4	-0.020291634
84	0x3d970870	0.07374656
85	0xbe23d563	-0.1599937
86	0xbaf536fb	-0.0018708402
87	0x3d654de2	0.055982478
88	0xbe317da8	-0.1733309
89	0x3d979ac1	0.07402564
90	0xbd0e746a	-0.03477899
91	0xbc6fd22f	-0.014637514
92	0xbd58c0f3	-0.052918386
93	0x3c1ec293	0.009689945
94	0xbc57890d	-0.013155234
95	0x3da9af25	0.08285359
96	0xbb49f7cc	-0.0030817864
97	0xbbbe133b	-0.0058006323
98	0xbdcf2483	-0.10114386
99	0xbd6278fd	-0.055291165
100	0xbe113b62	-0.14182809
101	0x3deb24ae	0.114816055
102	0x3d8990e3	0.06717088
103	0x3d145ee1	0.036223296
104	0xbdc25729	-0.09489281
105	0x3c9ff759	0.019527124
106	0x3d46fd08	0.048581153
107	0xbdc39ad6	-0.09551017
108	0x3d3e1db0	0.04641503
109	0xbe08538c	-0.1331312
110	0xbdb9bb91	-0.090689786
111	0x3bd2b989	0.006430809
112	0xbd83aef8	-0.06429857
113	0x3dc5429a	0.09631844
114	0xbd737121	-0.05943406
115	0x3dcec68a	0.10096462
116	0x3dc98c80	0.098412514
117	0x3e2bf275	0.16791709
118	0x3e1f0bec	0.15531892
119	0xbcb6c7e4	-0.022312112
120	0xbdae44c5	-0.085092105
121	0x3d7a5b30	0.06112212
122	0x3da66edc	0.081266135
123	0x3d54d423	0.05196012
124	0xbcd8aa2e	-0.026448335
125	0xbdbe1b3f	-0.092825405
126	0xbd9f034c	-0.07764301
127	0x3d122fcf	0.035690125
128	0x3d47c69a	0.048773386
129	0xbdc3860d	-0.095470525
130	0xbddb031d	-0.10693953
131	0xbd9297c8	-0.07157856
132	0x3e848b88	0.25887704
133	0x3e0f3978	0.13986766
134	0xbd8ff0c4	-0.07028344
135	0x3e003692	0.12520817
136	0xbd0ce264	-0.03439559
137	0xbdcce3ca	-0.10004385
138	0xbcd4a9d3	-0.025959885
139	0x3d07c6f6	0.03314873
140	0x3dd9a7af	0.10627686
141	0xbdd32c73	-0.103112124
142	0xbe0ff204	-0.14057165
143	0xbcfd065c	-0.030886821
144	0x3dfe80f3	0.12426939
145	0xbdb4bd33	-0.088251494
146	0x3cb3ec0a	0.021963138
147	0xbc8fd999	-0.017559813
148	0xbcc1cd98	-0.023657605
149	0xbd54490d	-0.05182748
150	0xbab8a439	-0.0014087028
151	0x3cb64bd5	0.022252956
152	0x3ddd1e5b	0.107968055
153	0x3c0334a5	0.008008157
154	0xbde4cdec	-0.11172089
155	0x3d415ae8	0.047205836
156	0x3dd64f39	0.10464329
157	0xbd4eedec	-0.05051987
158	0xbdb1f264	-0.086888105
159	0xbdf05580	-0.11735058
160	0x3db4d6a7	0.08830004
161	0xbdad8896	-0.08473317
162	0x3e33a249	0.17542376
163	0xbc9ef139	-0.019402133
164	0x3d945a22	0.07243754
165	0x3d0163b3	0.03158922
166	0xbd35c2be	-0.044375174
167	0xbe307e3e	-0.17235658
168	0xbcab5386	-0.02091385
169	0xbc1d4e7c	-0.009601232
170	0x3d36d39a	0.044635393
171	0xbcbe1a92	-0.02320603
172	0xbdaa0ca7	-0.083031945
173	0x3b577c65	0.0032880541
174	0x3c0045ff	0.007829188
175	0x3c132a8d	0.008982313
176	0x3e030e39	0.12798394
177	0xbcd09895	-0.025463382
178	0x3e0db95a	0.13840237
179	0x3db4495f	0.08803057
180	0xbe014497	-0.12623821
181	0x3dbd4439	0.09241528
182	0xbdf458e5	-0.11931018
183	0x3d593dfc	0.05303763
184	0xbd0f0515	-0.034916956
185	0x3e198f2d	0.14996023
186	0xbe0487b7	-0.12942396
187	0x3e0c3549	0.13692202
188	0xbe01657f	-0.12636374
189	0xbdbb9353	-0.09158959
190	0x3d833ba1	0.06407858
191	0x3d03c4d5	0.032170136
192	0xbda24b41	-0.0792451
193	0xbde9addd	-0.11410115
194	0x3cad9700	0.021190166
195	0xbd519040	-0.05116296
196	0xbd25b3d0	-0.040454686
197	0x3c364577	0.01112496
198	0xbd8c4724	-0.068495065
199	0xbe129de1	-0.14318039
200	0xbe0742ca	-0.13209072
201	0x3d8d305c	0.068939894
202	0xbc205fe8	-0.009788491
203	0xbdd03f26	-0.101682946
204	0x3bc65a30	0.0060532317
205	0x3df2b94e	0.1185175
206	0xbd95d6a1	-0.07316328
207	0x3da4036b	0.080084644
208	0xbdb7a063	-0.08966138
209	0xbd2cd7ad	-0.042197872
210	0x3ce83ad0	0.028348356
211	0xbd11c2d3	-0.03558619
212	0x3d1e9acd	0.03872185
213	0xbab9f6da	-0.0014187947
214	0x3d9bfaba	0.07616182
215	0xbce548ef	-0.027988879
216	0xbe09c1bf	-0.13452815
217	0xbd990f7d	-0.07473657
218	0x3de9799a	0.11400147
219	0x3c72b00c	0.014812481
220	0x3dd3a0f7	0.10333436
221	0xbdbd7108	-0.092500746
222	0xbdfedbfc	-0.124443024
223	0x3bd28fa5	0.006425815
224	0xbdfc2758	-0.12312192
225	0x3d06b0ec	0.03288357
226	0x3c68d798	0.014211558
227	0x3d3605be	0.04443907
228	0x3d851aa2	0.064992204
229	0x3be3215d	0.0069314674
230	0x3dedcc81	0.11611272
231	0x3de68864	0.11256483
232	0xbd3a455c	-0.045476303
233	0xbd8f922d	-0.07010303
234	0xbd9dc472	-0.077034846
235	0xbcdc2b5e	-0.026876148
236	0x3e14e036	0.14538655
237	0x3dcb4462	0.09925152
238	0xbd9e4a44	-0.07729009
239	0x3c3c28bf	0.011484324
240	0x3daa3d14	0.08312431
241	0xbba6a963	-0.0050861104
242	0x3c162ca3	0.009165916
243	0xbdcdf1cf	-0.10055887
244	0xbde5fbfa	-0.11229701
245	0x3d99f602	0.075176254
246	0xbd25e49d	-0.040501226
247	0xbcdd874c	-0.027042054
248	0xbdfbc5bb	-0.122935735
249	0x3d78e69e	0.06076681
250	0xbdae029e	-0.08496593
251	0x3d848a51	0.06471694
252	0xbe0b1359	-0.135816
253	0x3c93323d	0.017968291
254	0xbc9b657e	-0.018969294
255	0xbd6ccb27	-0.05781093

fc3.bias f4 [10]
0	0x3d938980	0.072039604
1	0xbdcf2ad6	-0.10115592
2	0x3cd2759e	0.02569085
3	0xbd598ed9	-0.053114746
4	0x3d79ec27	0.061016228
5	0xbdc61a1e	-0.0967295
6	0x3db67ba8	0.08910304
7	0x3dd1bd37	0.10241168
8	0x3d72b4c1	0.05925441
9	0x3d9ff79b	0.07810899
